modelo_treinado.pth (torch, 100000 bytes, 8 tensors)

layer1.0.weight f4 [16, 3, 3, 3]
000000 36 2c a7 3d 13 34 15 3f 46 f2 f0 3d 2b 1e 4c be
       0.081627294 0.58282584 0.1176496 -0.19933383
000010 d5 f5 ea 3e 72 d5 4b bd c9 47 5d 3d 03 2e 36 3e
       0.4589068 -0.049764104 0.054023538 0.1779099
000020 d2 9d 83 3d de d4 1b bf 18 3f 62 3e 17 60 f8 bd
       0.06426586 -0.60871685 0.22094381 -0.12127703
000030 cc 72 0a bf 1f d6 3c 3e e3 db ba bd 86 54 26 bf
       -0.54081416 0.18441056 -0.09123971 -0.6497272
000040 ee 25 09 3d 78 7d 3f be f9 9e 2b bf 2f f0 45 3e
       0.03348344 -0.18700206 -0.6703945 0.19329904
000050 8c 7f 36 be f7 92 75 be 2f 64 4c 3e f7 55 1e be
       -0.17822093 -0.23981844 0.19960092 -0.1546248
000060 9a 95 aa be 80 a6 c7 3e 7a e1 c6 3c 09 79 f7 3c
       -0.33317262 0.38994217 0.024277437 0.030209081
000070 af fd b0 be 8f 9a 80 be d6 46 92 3e d6 29 ae 3d
       -0.34568545 -0.2511792 0.2856967 0.08504073
000080 6c 80 b0 3d 83 c0 71 3e 52 0f 19 3e 0f f1 48 3e
       0.086182445 0.23608594 0.1494725 0.19623207
000090 15 90 d4 bd cb bb 2e bf bd de bd be 0e 0c d2 3e
       -0.10379044 -0.682553 -0.37083998 0.41024822
0000a0 95 65 fc 3d 59 61 ec 3e ba 1a be 3e ac 33 a0 3e
       0.12324063 0.4616802 0.37129766 0.31289423
0000b0 5f 5f 9a 3e b2 20 81 be 9c d3 68 bf f9 e9 c1 be
       0.30150887 -0.25220257 -0.9094789 -0.3787382
0000c0 1e 10 0f 3e 54 77 8c bc 1b 64 87 3e dc 6d a0 3e
       0.13970992 -0.017146744 0.26443562 0.31333816
0000d0 f6 a1 a9 3c 85 19 73 3c 69 68 56 be 9c 0b 90 be
       0.020707112 0.014837627 -0.20938267 -0.28133857
0000e0 cb 1b 82 bd ce 50 32 bd 64 b1 a6 bd ba 97 a7 be
       -0.06352957 -0.043534093 -0.08139303 -0.32732946
0000f0 95 c9 89 be ac c7 bd be d6 c7 7f be b0 9e 87 3d
       -0.26911607 -0.370664 -0.24978575 0.06622064
000100 73 d1 cd 3d 36 95 b0 bb 1c 5f 48 bd 7c ae 18 be
       0.10049715 -0.005388881 -0.04891883 -0.1491031
000110 d2 1a 90 bd 8a 47 08 3d 8f 0f b1 3d b4 1e 12 bd
       -0.070363656 0.03327135 0.08645546 -0.035673812
000120 09 94 9d 3e 88 cd 61 3e e0 4f e0 3d 3d ab 2a 3e
       0.30777004 0.2205106 0.10952735 0.16666885
000130 5e 26 99 3e 7f f8 93 3e f2 e7 25 3e 5b a2 d3 3e
       0.29912084 0.28900525 0.16201761 0.41334805
000140 8d 5b b3 3e 8d fe 7e be 59 2a 80 be bb ed d7 be
       0.35030785 -0.24901791 -0.2503231 -0.4217356
000150 b5 bd f1 bd 73 f4 29 3e 89 cb 8a be ae fe fd ba
       -0.11803762 0.16597156 -0.2710841 -0.0019378269
000160 f8 13 1b be 1e f9 9c be dc 16 03 3f c5 41 e9 3e
       -0.15144336 -0.3065881 0.51206756 0.4555799
000170 09 0d 0a 3e 0a cb be 3e b1 10 0d 3f 21 2b a1 3e
       0.13481535 0.37264282 0.55103594 0.31478217
000180 b8 08 10 be 36 cd c0 3e 10 4d 88 bd 72 29 e3 bd
       -0.14065826 0.37656564 -0.066553235 -0.110918894
000190 c5 fd c9 bd fb da ae 3d 81 9e 80 be 56 47 fa 3d
       -0.09862856 0.08537861 -0.2512093 0.122206375
0001a0 7c 4f d5 bc 59 2c cd be 73 c8 9e 3d 49 18 cc be
       -0.026038878 -0.40072897 0.077530764 -0.39862278
0001b0 5e 9c 7d bd 29 5a 27 be 8d 9c d3 3e f4 6f d0 3d
       -0.0619167 -0.16342987 0.41330376 0.10177603
0001c0 32 44 8a 3e 9d 85 61 be 59 0d ce 3e 26 31 d2 ba
       0.27005154 -0.22023626 0.40244558 -0.0016036376
0001d0 d6 e1 f6 bd f3 ca 9d bc 1a 00 ce 3d 00 ba d5 3e
       -0.120547935 -0.019261813 0.10058613 0.4174347
0001e0 79 ac d9 bc db cd 85 3e eb 35 03 bf 40 92 a3 3e
       -0.0265715 0.26133618 -0.5125415 0.31947517
0001f0 05 72 6d 3e 76 2d 7f be 4f 3d c9 be 90 28 87 be
       0.23188026 -0.24919686 -0.39304587 -0.26398134
000200 14 9b 54 3e 22 7f 6e be fc d6 9c 3d 6d 4b 62 be
       0.20762283 -0.23290685 0.076581925 -0.22099085
000210 b1 b6 6c 3e 06 a8 ed 3d 48 a0 86 be d2 1f 06 bc
       0.23116566 0.116043136 -0.2629416 -0.0081862975
000220 90 40 b8 bd ea d4 0f bd cb ae 4a be 9c 5b 68 be
       -0.08996689 -0.03511516 -0.1979324 -0.22691196
000230 e1 5a cf be 40 a5 fb bd 74 2e 8d be bd e0 8c bb
       -0.40499023 -0.12287378 -0.27574503 -0.004299252
000240 38 15 dd 3d 1c 2d ba 3d b5 03 43 3e c1 74 01 3e
       0.10795063 0.09090635 0.19044383 0.12642194
000250 81 5a 02 be 78 23 01 be 44 69 15 3e 1d 8c 6f be
       -0.12729837 -0.12611187 0.14590937 -0.23393293
000260 5f d6 7c bd 64 97 6e 3e 4e e1 29 3e c2 4e b4 3e
       -0.061727878 0.23299938 0.16589853 0.35216337
000270 86 b3 90 3e ff f9 c7 3e a2 99 9d 3d b5 03 95 3e
       0.28261966 0.3905792 0.07695319 0.2910439
000280 0d f9 2e be f3 c7 09 3e 76 85 b2 3e 99 9b 08 3e
       -0.17087193 0.13455181 0.34867448 0.13340606
000290 17 22 0a 3d 50 fe a8 bd 32 46 0c be 4e 1d 1b be
       0.033723917 -0.08251631 -0.13698652 -0.15147898
0002a0 32 dc 1f bd c3 17 9b 3d 0a 45 46 bc ee 8a 30 bd
       -0.039028354 0.075728916 -0.012101421 -0.043101244
0002b0 b4 60 40 be b0 3e 2a be 02 a4 11 be 62 2b ad 3d
       -0.1878689 -0.16625476 -0.1422272 0.0845554
0002c0 68 79 2d bd 7c 69 e5 3d 07 2c e5 3b 17 97 c9 bd
       -0.04235211 0.1120176 0.006993774 -0.09843271
0002d0 2b 73 92 3e cc 58 98 3e 83 7d de 3c a2 62 c2 bc
       0.2860349 0.29755247 0.027159458 -0.023728672
0002e0 77 e6 bb 3e f9 e5 b7 3e f3 22 cb 3e 11 46 e2 3e
       0.36699268 0.35917643 0.39675102 0.4419408
0002f0 c0 56 96 3e 59 2e d3 bd 0d 5f 53 be 03 94 03 3e
       0.2936306 -0.103115745 -0.20641728 0.1284943
000300 cd c8 89 be 72 6d ef be e4 11 05 be 3f d5 c4 bd
       -0.2691101 -0.46763188 -0.12995106 -0.09610986
000310 ae cd 7a 3d 8f 5c f0 bd 08 8f a8 3e bb e7 e4 3d
       0.061231308 -0.11736404 0.32921624 0.111770116
000320 c5 68 e6 3e dc 3f 83 3c 09 14 fa bd 94 11 2a be
       0.45001808 0.016021661 -0.12210853 -0.16608268
000330 9d e1 81 3e eb 4f 08 3b 95 87 61 3e 95 8b 1d bd
       0.25367442 0.0020799588 0.22024377 -0.038463194
000340 9d c1 05 be da ea df 3d cd 57 91 be 98 94 55 be
       -0.13062139 0.10933466 -0.283873 -0.20857465
000350 40 cd f5 bd 9f 47 d9 3c 1f 9d 48 be f4 0b 1a 3e
       -0.12002039 0.02652341 -0.19591187 0.15043622
000360 75 1b 8e 3e 6a b3 4b 3e 27 7f 0d 3e d1 32 a9 be
       0.27755323 0.1989266 0.13818036 -0.33046582
000370 e4 99 73 be 45 dc 81 3d c0 d4 c8 be f9 69 17 be
       -0.23789173 0.06340841 -0.39224815 -0.14786519
000380 5a 57 89 3d 82 ec 05 3e 6d 4c 6a 3d c6 56 ac 3d
       0.06706114 0.13078502 0.05720179 0.08414988
000390 e8 af d9 be 47 7b 24 be 17 2a b6 3d 35 ed 44 be
       -0.42517018 -0.16062652 0.08894747 -0.19231112
0003a0 5f a5 99 be d4 bb ea 3c 01 9a d5 3e 70 08 0c 3f
       -0.3000898 0.028654017 0.41719058 0.54700375
0003b0 5f 79 9b 3e 4f 6c 87 be 06 69 22 be 9c a3 ad 3e
       0.30366036 -0.2644982 -0.15860376 0.33913887
0003c0 78 bc 96 be aa 36 2f 3d 79 ce 17 3f 66 54 34 3e
       -0.29440665 0.04277674 0.5929943 0.1761032
0003d0 a7 17 1f be 6b 89 4b be bd d2 34 3e 20 48 3b bd
       -0.15536366 -0.1987664 0.17658515 -0.04572308
0003e0 c7 32 b2 be 7b 61 34 3e b2 3f 3c be f4 a3 31 bd
       -0.34804365 0.17615311 -0.18383673 -0.04336925
0003f0 54 0d 7f bd fe a1 fb 3d 24 9d 0d 3e 93 c6 aa 3e
       -0.06226857 0.12286757 0.13829476 0.33354625

layer1.0.bias f4 [16]
000000 9f 3b 1d 3e 2d ab 42 bd 27 3f a5 3e 3b ef eb 3d
       0.15354775 -0.047526527 0.32274744 0.11520239
000010 b7 a8 f1 be 76 a1 85 3d 87 2f 67 be 7c 0a aa be
       -0.47199032 0.06524937 -0.22576724 -0.33211124
000020 97 43 a4 be d8 52 a6 bd 2f 4a a2 3e ee 24 e6 bc
       -0.32082817 -0.0812127 0.31697223 -0.028093781
000030 27 97 10 bd 81 a0 ef be 07 ad 27 bf c4 bb 24 3e
       -0.0353004 -0.46802142 -0.65498394 0.16087252

layer2.0.weight f4 [32, 16, 3, 3]
000000 fb f4 b0 3d 09 d0 34 3d 34 79 99 3d 09 e8 64 bc
       0.08640476 0.04414371 0.07493821 -0.013971337
000010 e9 5a 58 bc 53 b4 10 3e 49 d4 09 3d 2a d9 06 3c
       -0.013205268 0.14131288 0.033649717 0.008230487
000020 60 c5 12 3e 22 3a 9d bd 4a 3c bd be a2 46 3a be
       0.14333105 -0.076771036 -0.3696006 -0.18191007
000030 43 de 45 bc 97 30 80 bb 7d c7 9b 3c a6 d8 43 3d
       -0.012076917 -0.0039120424 0.019016022 0.047814034
000040 1d 88 8d bd f1 5f dd 3d 13 13 25 bd 43 10 cc 3c
       -0.06910727 0.10809315 -0.040301394 0.024910098
000050 3f c5 43 bb 88 7a b4 be 7d e0 81 be ab 7d 28 bd
       -0.0029872207 -0.35249734 -0.25366583 -0.04113547
000060 70 82 aa be 45 94 cf be c5 2d d1 be 1f 4a 8a be
       -0.3330264 -0.40542808 -0.40855232 -0.27009675
000070 27 ee 31 be 41 7a 8a be 25 0c 45 be ee d7 af be
       -0.17376004 -0.27046397 -0.19242914 -0.3434443
000080 01 70 7b be 00 8d 93 3d 92 53 46 be 8e 54 6b be
       -0.24554445 0.07204628 -0.19367817 -0.22981474
000090 41 b5 5a 3e 4a 2f f8 3d c5 66 68 bb c8 43 0b 3e
       0.21358205 0.12118395 -0.0035461646 0.13600075
0000a0 78 c7 79 3d dd b8 18 bb b9 ec 09 bd f9 0b 73 bd
       0.060981244 -0.0023303546 -0.033673022 -0.05933759
0000b0 d7 c6 39 3e 67 3b 06 be ba 48 09 3e 39 77 53 bc
       0.18142258 -0.13108598 0.13406649 -0.012906843
0000c0 ef d6 7a be 28 29 18 bf a2 ba 6c be 47 68 08 bf
       -0.24496053 -0.594378 -0.2311807 -0.53284115
0000d0 d0 da 3e bf a0 0d 0c bf 90 96 a4 bd bc e0 d2 be
       -0.7455263 -0.5470829 -0.0803653 -0.41187084
0000e0 1e 42 82 3d e5 bf 15 be 88 4b 8a be f1 a9 11 be
       0.06360267 -0.14623983 -0.2701075 -0.14224984
0000f0 43 fa 52 be a4 af c1 be a0 85 94 be df bf 0d 3d
       -0.2060328 -0.37829316 -0.29008198 0.03460681
000100 df 38 ba 3d 79 cb 30 be a4 ed e9 bd 6b c8 ce bd
       0.090928786 -0.17265119 -0.114222795 -0.100968204
000110 28 52 ae bd f4 59 04 3d d2 45 97 3d 25 b5 cb 3d
       -0.08511764 0.03231235 0.07386364 0.0994666
000120 fa 98 34 be d7 73 bc 3d 95 86 9a 3e 91 3b 58 be
       -0.17636481 0.09201782 0.30180803 -0.21116473
000130 10 62 7e be 0f 33 b7 3d 55 dd 5f 3d e9 10 af bd
       -0.24842095 0.089452855 0.054654438 -0.08548147
000140 8d 3c c7 3d ac 44 ae be d6 43 81 be 8f 31 0b be
       0.09728346 -0.34036767 -0.25247067 -0.13593124
000150 ae c0 c7 3d 8f 61 3f bc 48 2e 29 3e ec 3b 24 3e
       0.097535476 -0.011680975 0.16521561 0.16038483
000160 40 b0 88 bd f1 55 61 3c af 5f 00 be 5e f3 9c be
       -0.06674242 0.0137534 -0.125365 -0.30654424
000170 e0 bb ba be 34 16 92 3c da 7a 23 3a 2e d8 58 3d
       -0.36471462 0.017832853 0.0006236263 0.05294054
000180 92 55 5c 3d da 3c 7f bd 2d 77 9c bd 16 79 bc be
       0.053792544 -0.062313892 -0.076399185 -0.3681113
000190 a7 c8 aa be d9 5e 46 be 01 4b 26 3e 4d 8f 1d bb
       -0.3335621 -0.19372119 0.16239549 -0.0024041713
0001a0 99 73 d4 3d 20 25 40 3e 55 7b d1 3d e2 1d 4c bc
       0.10373611 0.18764162 0.10228602 -0.0124582965
0001b0 5d 1f 38 bd e8 18 cb 3d 45 aa 8b bd d3 36 8b 3d
       -0.044951785 0.0991686 -0.06819586 0.06797566
0001c0 af 0c 17 3d 4c 3f 49 3e 81 27 66 bd 82 50 92 3d
       0.03687733 0.19653052 -0.056190018 0.07144262
0001d0 dc 57 1a 3e c8 ec 43 be 96 40 97 be 3b 60 6e 3d
       0.15072578 -0.19133294 -0.29541463 0.05819724
0001e0 bf fa 5a 3e 8a 67 81 3b a5 ce b7 3c ca b9 f1 3d
       0.21384715 0.0039491104 0.022437403 0.118030146
0001f0 38 9c ff 3c 27 3e 93 3c ae d7 13 3e 6e 4e 66 3d
       0.03120242 0.017973972 0.14437744 0.05622714
000200 8a f6 61 bd 71 fd 32 bd 61 ad ac bd 3a 31 59 be
       -0.05516676 -0.04369873 -0.08431507 -0.21210185
000210 c7 43 89 3d 5f a0 ec 3d 38 df d3 3d 4e e2 c1 3d
       0.067023806 0.11554026 0.1034531 0.09466992
000220 98 88 48 3e 8a e0 87 3e 35 d6 e6 3a 7b 91 21 be
       0.19583356 0.26538497 0.0017611446 -0.15778153
000230 96 c5 93 3d 20 0f a0 3e 49 29 ee 3d 73 c7 59 3e
       0.07215421 0.3126154 0.11628968 0.2126749
000240 33 20 41 be d1 d9 9b be 49 8c 5a bf 30 7a 1f be
       -0.1885994 -0.30439618 -0.8537031 -0.15573955
000250 35 2b a1 3b 89 04 42 bf f6 49 74 be 18 c8 83 be
       0.0049184808 -0.7578817 -0.23856339 -0.25738597
000260 ed 9e 66 bd 3c c1 ef bb 8d 19 48 3d f5 18 01 3e
       -0.056303907 -0.0073167365 0.048852492 0.12607177
000270 8e 70 88 bd dd 99 7b bd af bc 9e 3d 96 4d 19 bc
       -0.06662093 -0.061426032 0.07750832 -0.009356877
000280 05 61 0b be 48 fa f5 bd d6 7d 64 bc e1 72 8e be
       -0.13611229 -0.12010628 -0.013946017 -0.2782202
000290 c8 31 a2 be 58 82 9f be 9c ba 9f be ef 3d 85 be
       -0.31678605 -0.31154132 -0.3119706 -0.26023814
0002a0 36 8c 8c be 60 5a ed be 1d 9b 4e be 9e c5 2f 3e
       -0.27450722 -0.46358013 -0.20176359 0.17165229
0002b0 19 34 5c 3e e6 02 ab bd f8 ae a8 3d 71 0f 20 3e
       0.21504249 -0.08350162 0.08236498 0.1563089
0002c0 c4 39 43 be fb 56 dc bd b2 15 5d be ea 18 da bb
       -0.19065005 -0.10758778 -0.21590307 -0.006655802
0002d0 73 a0 39 3d 08 48 a8 bd 58 97 7c 3e 5f bb 77 3e
       0.045319032 -0.08216864 0.24667108 0.2419257
0002e0 db bd 02 bf a8 9b 80 3d 3f c4 48 bd 77 ee 82 3e
       -0.51070946 0.06279689 -0.04901528 0.2557256
0002f0 06 2f 38 bd a3 ce fb bd 22 85 4c be 01 81 b5 bd
       -0.04496672 -0.12295272 -0.19972661 -0.08862496
000300 40 82 8c be 06 d1 bf be ae 4a 91 be 0f 7a 9f be
       -0.27443123 -0.3746416 -0.2837729 -0.3114781
000310 ce a5 0d bf 5f e9 42 be 9f 93 3e bc 86 8c c9 3d
       -0.5533112 -0.19034337 -0.011631875 0.09841256
000320 87 8d e7 3c 1a aa 22 bd 18 98 dc bd 27 54 a3 bd
       0.028265728 -0.039713003 -0.10771197 -0.07975035
000330 07 49 4f bd 57 ac f9 3c c3 08 56 3d 6f 0e a6 3e
       -0.050606754 0.030477686 0.05225445 0.32432887
000340 a3 c5 02 3f a0 36 23 3f 0c db 8e 3e dc 1b 90 3e
       0.5108282 0.63755226 0.27901495 0.28146255
000350 d6 00 4b 3e db 10 f1 3e 3d 3a c7 3e ad a3 c3 3e
       0.19824538 0.47083172 0.3891162 0.38210812
000360 30 ee 47 bd 6a 60 f3 3d e1 b3 f5 3d 87 5a cc be
       -0.048811138 0.11883624 0.119972 -0.39912817
000370 92 4d 1c 3d 67 99 6d 3b 03 2a 03 3e 8e e3 3b 3e
       0.038159914 0.0036254765 0.12808995 0.18348524
000380 33 f9 01 3e 0c 93 6e 3e 9f e2 8e 3e 6c e7 44 3e
       0.12692718 0.23298281 0.27907273 0.19228905
000390 d2 c8 57 3e fa 0f 60 3e a9 fb 2d 3e 9f 93 b5 3d
       0.210727 0.21881095 0.16990532 0.08866047
0003a0 82 15 f4 3d de b4 d0 3d bf 41 b9 3d b9 2a 0d bd
       0.11918165 0.10190748 0.09045743 -0.03446457
0003b0 e2 e8 f1 3b 3f 3f 87 3d f9 e5 dd bd 57 14 fb 3b
       0.007382498 0.0660386 -0.108348794 0.007662337
0003c0 97 0a b9 3d f0 47 1b be a1 75 c4 3c 43 03 1a 3e
       0.09035223 -0.1516416 0.023981871 0.15040307
0003d0 91 7f 25 3e b0 e6 fb 3d e6 38 1a 3d 19 b6 aa 3d
       0.16161944 0.122998595 0.03765192 0.083355136
0003e0 67 34 a3 3d b3 94 a5 3c bd 8f ed bc fb a3 f9 bb
       0.07968979 0.020212507 -0.028999204 -0.007618425
0003f0 2c d6 8d bd f3 1f ce bd c2 94 10 3d f4 d4 ba bc
       -0.06925616 -0.100646876 0.035298117 -0.022806622

layer2.0.bias f4 [32]
000000 6e 8f de 3c 98 cb 48 be b1 8e 9c bd 10 6c 05 be
       0.027168002 -0.19608915 -0.07644404 -0.13029504
000010 65 e6 df 3d 69 16 ea bd c4 96 9d 3b 34 4f cf 3c
       0.10932616 -0.11430056 0.0048092324 0.025306322
000020 4a 3d 7d be 4a fa cb be 03 67 67 bd 16 63 d2 3b
       -0.24730411 -0.39839393 -0.056494724 0.0064205034
000030 ee 94 dd 3d 75 d9 5f 3e bd 86 5c bb df ff 75 be
       0.10819422 0.21860297 -0.0033649646 -0.24023388
000040 39 d9 8e 3d 73 cd 80 3e d9 ce 76 be 47 a3 35 be
       0.06975026 0.25156745 -0.24102344 -0.17738067
000050 6f 61 70 3e c3 79 06 3d f1 0e 41 3d de a4 cd 3d
       0.23474668 0.032830965 0.04713339 0.100412115
000060 6b 85 32 3e 38 b9 33 3e 60 17 93 bd 22 86 af bd
       0.17433707 0.17551124 -0.07182193 -0.08570506
000070 b4 27 2b be 04 93 8b 3e 9e fa 59 3e ed 6b 8c 3e
       -0.16714364 0.27260602 0.21287009 0.2742609

layer3.0.weight f4 [64, 32, 3, 3]
000000 f7 b6 69 bf 8e c8 6c bf ff ce c6 be d0 88 76 3e
       -0.9129481 -0.9249352 -0.388298 0.24075627
000010 c0 de 38 3e de f1 f8 3d b2 bb 2a 3d 89 f7 1a be
       0.18053722 0.121555075 0.041682906 -0.1513349
000020 36 cf 87 3e 34 24 03 3f 2d 1b 29 3f 45 60 22 3f
       0.26525277 0.51227117 0.6605709 0.63428146
000030 88 31 70 3e 06 f3 b1 3e 5e 4c 52 3e 45 83 24 3f
       0.23456395 0.34755725 0.20536944 0.642628
000040 7a 08 ba 3e 95 d4 3b 3e 94 2f 0e bd d8 18 28 3e
       0.36334592 0.18342812 -0.034713343 0.16415727
000050 42 00 75 bd cb 1c d0 3d c9 de 9a 3c b4 fa e9 bd
       -0.0598147 0.10161742 0.01890506 -0.11424771
000060 4a 62 fb bb bb 22 6b be 9f 97 d3 be 6c 0e 89 be
       -0.007671629 -0.22962467 -0.41326615 -0.26768816
000070 d8 17 b8 bd 4f 51 fd bb 97 c3 a0 bd 58 64 0b 3e
       -0.08988923 -0.00773064 -0.07849806 0.13612497
000080 b3 17 0a 3e 10 9b 0f 3c d7 62 08 3e 4a 41 d3 3e
       0.13485603 0.008764997 0.13318954 0.4126075
000090 31 11 b6 3e 65 ae 39 3e 40 62 ff 3d b8 75 76 3d
       0.3555999 0.18132932 0.124699116 0.06017086
0000a0 45 80 4d be e2 df cf be 29 1c 3c 3e fb 6c 29 3d
       -0.20068462 -0.40600497 0.18370117 0.041363697
0000b0 f4 af ac be e5 44 ce 3d f1 ce ab bc a7 af c8 3d
       -0.33727992 0.10071734 -0.0209727 0.09799128
0000c0 c2 fc 20 3e 27 1b f9 3d 08 73 38 3d dc de 5f 3e
       0.1572142 0.12163382 0.045031577 0.21862358
0000d0 70 38 2a be ac b8 d2 3e d3 aa 74 be 55 4e 83 be
       -0.16623092 0.41156518 -0.2389329 -0.256457
0000e0 f1 6e 77 be e9 04 2c be f2 d5 46 be f4 47 80 be
       -0.24163415 -0.16798748 -0.19417551 -0.25054896
0000f0 e8 51 77 bd ea 48 9f be d7 21 cf bd b1 ad 81 be
       -0.060380846 -0.31110317 -0.10113876 -0.2532783
000100 1e af 93 be e2 68 9c be a1 80 28 3e bd 64 2a 3e
       -0.2884454 -0.3054877 0.16455318 0.16639991
000110 d6 ac aa 3e 26 27 63 be af e1 14 bf 28 d6 6a bc
       0.33334988 -0.22182903 -0.58156866 -0.014333285
000120 7d 24 c2 3e 91 a0 6f 3e 0e d7 06 bd 5e 7b be 3e
       0.37918463 0.23401095 -0.032919936 0.37203497
000130 30 3a 17 3e 7a 11 22 be c9 79 9d 3e b7 69 6e 3e
       0.1476829 -0.1582698 0.30756977 0.23282515
000140 d5 16 4a 3d 43 32 a9 be 89 c7 98 be 31 9e e5 bd
       0.04933818 -0.3304616 -0.29839733 -0.11211813
000150 d5 62 d8 3d de 40 0a 3e 52 5e 71 3e b9 7f 01 bf
       0.10565726 0.13501307 0.23571137 -0.50585514
000160 86 65 09 bd 2b 5f ab 3e 9f 19 e6 bd 94 5f 1c bd
       -0.033544086 0.33471045 -0.112353556 -0.038177088
000170 e0 5e 3f 3e d3 3a 81 3d a2 58 ec 3d 96 b2 13 3e
       0.18688536 0.06310048 0.11540343 0.14423594
000180 f8 1f e3 3c 81 e1 7f 3d 08 79 38 3b 33 8c 53 bf
       0.027725205 0.062470917 0.0028148312 -0.826358
000190 ef 24 4b bf c4 0f 9f be 12 77 1b bf 58 3d 31 be
       -0.7935323 -0.31066716 -0.6072856 -0.17308557
0001a0 5d e3 08 bd c8 bd 53 be b2 94 92 3c e5 f2 1f 3e
       -0.033419956 -0.20677865 0.01789317 0.1562
0001b0 cf d9 c0 3e 2a 30 06 bc 2b e8 fc 3d 95 d7 fb 3d
       0.37666175 -0.008190194 0.1234897 0.122969784
0001c0 c7 f4 2d be 12 dd be bd 63 ba ca bd 39 e5 62 bf
       -0.16987906 -0.093195096 -0.09898832 -0.88631016
0001d0 aa 3e 35 bf c0 a1 6e 3e 72 51 c9 3e 58 95 c5 3e
       -0.7079874 0.2330389 0.3931995 0.38590503
0001e0 5f c4 62 3b e3 c3 7b 3d 05 37 27 3e 88 76 98 bd
       0.003460191 0.06146611 0.16329582 -0.07444483
0001f0 a3 a0 a5 3d 06 61 b9 bd e3 c4 f5 3d 9d 98 a6 3d
       0.0808728 -0.09051709 0.12000444 0.081345774
000200 80 01 e9 bd a3 55 08 be 28 ec 28 bd b4 90 75 be
       -0.11377239 -0.13313918 -0.04124084 -0.23980981
000210 26 b9 09 bc 45 25 8e bf bd ca 64 bf 15 bd b1 be
       -0.008405959 -1.1105124 -0.89371854 -0.3471457
000220 49 b9 c8 be b3 71 a1 3e fd d3 91 be d3 09 a9 be
       -0.3920386 0.31532058 -0.28482047 -0.33015308
000230 67 49 d3 3e 5a 9e 3b be b7 ea 8e bc a4 79 dc 3e
       0.4126694 -0.18322125 -0.017445905 0.43061554
000240 59 2b 54 be c0 0e 84 3e 5e a5 e9 bd df 1f 5b 3d
       -0.20719661 0.25792503 -0.114084944 0.05349719
000250 df ad 2f 3e 4a 3b dc be 4c 80 a0 3d 18 7e 91 3d
       0.1715617 -0.43013984 0.07836971 0.071041286
000260 1a 45 0c bf 1d 76 f7 3d fd 63 b9 bd ab ff 3d bd
       -0.5479294 0.12083075 -0.090522744 -0.046386402
000270 0e 7b 0d 3d 96 ec 3e 3e d7 b1 b2 3d c2 c8 ac be
       0.034541182 0.18644938 0.087253265 -0.33746916
000280 0e 77 40 bf 9e 95 db be e1 ae fa 3b b8 fa a9 bd
       -0.75181663 -0.42887586 0.0076502417 -0.08299774
000290 bf 0a a2 bd 45 f6 e1 bd 2d 72 e0 bd 51 6f 58 be
       -0.07912206 -0.110333 -0.10959277 -0.21136214
0002a0 4b 0a 72 3e 6a 80 ee bd 19 d5 01 bf 0b 60 55 3d
       0.23636739 -0.11645587 -0.50715786 0.052093547
0002b0 1b b5 b4 3d 88 56 45 3c 77 3d d4 bd 53 19 db 3d
       0.088236056 0.012044556 -0.10363286 0.106981896
0002c0 b1 94 00 3e e4 96 9e bd e2 d7 f9 ba 3b b6 4d be
       0.12556721 -0.07743624 -0.001906153 -0.20089047
0002d0 a9 e1 6c 3e 06 90 5f 3e bc a5 f6 3c 2a 39 24 be
       0.23132958 0.21832284 0.030108325 -0.16037431
0002e0 5e 5e 60 be 50 b6 bb be 46 30 97 bd 15 43 6e be
       -0.21910998 -0.3666253 -0.07382254 -0.23267777
0002f0 e1 19 20 bf 09 6d 1b be 5a 74 36 be d5 81 49 3e
       -0.6253949 -0.15178312 -0.17817822 0.19678433
000300 09 e8 45 3e 23 28 64 3e d4 9a 5d 3e 11 ba bd 3e
       0.19326796 0.22280936 0.21641093 0.3705602
000310 4d c1 b3 bb d2 c1 86 3e 71 13 2c bd 9b 4b fe bd
       -0.0054856897 0.26319748 -0.04201073 -0.12416764
000320 34 e0 8c bd d6 31 8d bd 47 4e 1d be ae 57 42 be
       -0.06878701 -0.06894271 -0.15361892 -0.1897876
000330 01 4e 21 be 55 26 86 be 42 f6 14 3e 70 e4 af 3d
       -0.15752412 -0.2620112 0.14547065 0.08588493
000340 a2 b1 68 be 08 65 8b be d7 56 2a 3e 55 9f 3d 3d
       -0.22724012 -0.27225518 0.1663469 0.04629453
000350 d4 d3 4c 3d 5e 79 86 3e 63 6b bd 3e 27 3d 92 3e
       0.050006703 0.2626447 0.36995992 0.2856228
000360 20 d5 d5 3d 06 45 b8 3c 4e 8f 11 be 20 c9 73 3e
       0.10441041 0.02249385 -0.14214823 0.23807192
000370 cd d6 81 39 58 ee 10 be d2 01 f2 bd 6f b6 2d bf
       0.00024764836 -0.14153421 -0.118167534 -0.67856497
000380 f5 93 f3 bf 9c 58 af 3d 38 70 49 3e d9 32 20 3e
       -1.9029528 0.08561823 0.19671714 0.15644397
000390 ec d4 b5 bb 37 f2 a6 3d e2 88 fc 3c c2 91 06 3e
       -0.005549064 0.081516676 0.03082699 0.1314154
0003a0 d9 b4 df 3d d8 00 24 be 8a bd 2a 3e f3 ae 94 be
       0.10923166 -0.16015947 0.16673866 -0.29039726
0003b0 a0 36 da bc 66 6f a2 be 92 e6 fb be 8d 14 16 3c
       -0.026637375 -0.31725615 -0.4919935 0.009160173
0003c0 e9 40 25 bf 4c d1 b4 be 5d 53 24 3e 2d b6 41 3d
       -0.6455217 -0.3531593 0.16047426 0.047292877
0003d0 24 e3 8c bc 49 48 65 3e 69 88 08 3d db ef 96 3d
       -0.017198153 0.22390856 0.033333216 0.073699676
0003e0 e9 39 dc 3d c7 9a c6 bd 35 3f 16 be 1b 45 75 3d
       0.10753233 -0.0969749 -0.14672549 0.059880357
0003f0 fc b5 6e be c6 a9 42 be 53 9f 9b 3e a4 8f c8 be
       -0.23311609 -0.19010076 0.30394992 -0.3917209

layer3.0.bias f4 [64]
000000 8a 1c 03 bf ab da 53 be e2 06 78 be d0 20 f8 3d
       -0.5121542 -0.20688884 -0.24221376 0.121156335
000010 55 4c b5 bd ac ee 57 bd bd a0 e0 bc 0f 5a cf 3d
       -0.0885245 -0.05271785 -0.027420396 0.10124599
000020 49 13 95 bd 49 76 1c 3d 9c d8 2c 3d 21 6d 98 3d
       -0.07279069 0.038198743 0.042198762 0.0744269
000030 83 db 48 bd 78 3f 33 3e d7 f3 10 be 89 95 06 3e
       -0.049037468 0.1750468 -0.14155518 0.1314298
000040 f7 b7 99 bd 67 84 01 be f3 21 1e bb 6d 42 d7 3d
       -0.07505792 -0.12648164 -0.0024129122 0.105107166
000050 f4 d7 21 3e 9e af a0 3e 95 94 09 3e 27 d5 7f bd
       0.15805036 0.31383985 0.13435586 -0.062459137
000060 8e 39 c2 bd 1c 54 1c bd fa 46 c2 3d 72 3f d7 bd
       -0.09483634 -0.03816615 0.09486194 -0.10510148
000070 6b 54 83 3d e9 b9 82 be da 24 23 3e 62 2c 43 3e
       0.06412586 -0.25532463 0.15932027 0.190599
000080 33 85 0e 3e f8 f8 fd 3d 13 42 c0 bc 20 89 de 3c
       0.13917999 0.12401003 -0.023469007 0.027164996
000090 44 ae 0a be cd 66 0d 3e 65 5d ea 3d 98 fa d7 3d
       -0.1354304 0.13808747 0.11443595 0.10545844
0000a0 1f 68 0a 3e 62 e0 a8 bd 2d c7 67 3e 37 60 c2 3d
       0.13516282 -0.082459226 0.22634573 0.09491008
0000b0 3b fa 41 3e 0e 2a 65 bd 72 c9 96 3d b9 58 99 3d
       0.18943112 -0.05594831 0.073626414 0.07487626
0000c0 e6 d3 3c 3e 4d a9 b9 be dc e1 6f bd 6a 0f 49 3e
       0.18440208 -0.3626198 -0.058565006 0.19634786
0000d0 ef de a2 3e 1a 3f 06 3e ab 4c 21 bd cd ee 10 be
       0.3181071 0.13110009 -0.039379757 -0.14153595
0000e0 3a b9 8d be d7 20 12 3d b6 09 55 be 3d 9b 07 3f
       -0.2768038 0.03567585 -0.20804486 0.5297125
0000f0 af a5 03 3e 5c bd 8d 3d 26 e4 67 3d 53 dd 35 be
       0.12856172 0.06920883 0.056614064 -0.1776021

fc.weight f4 [8, 64]
000000 6d dc 55 3f 5e b3 47 be 2f 14 e4 be 40 cd 4f 3c
       0.8353947 -0.19502017 -0.4454665 0.012683213
000010 c6 e2 04 bd d3 d4 ca be 8a 8f d6 3d ae 0e 99 3e
       -0.03244283 -0.39615497 0.10476597 0.29894012
000020 8c 25 ec 3d 91 80 80 3c a2 69 11 be 46 48 81 bd
       0.11530599 0.015686305 -0.14200452 -0.06312613
000030 1e 29 d2 3d c5 4c e8 bd d0 25 4e bf db 4c f4 3d
       0.10261749 -0.113427676 -0.8052645 0.119287215
000040 95 f4 59 be e8 87 42 bf da c5 59 be 0a f8 d3 bc
       -0.21284707 -0.75988626 -0.2126688 -0.02587511
000050 25 8c ac 3c fb b7 36 3f 1a c5 dc 3d e4 59 25 3c
       0.02106292 0.7137448 0.10779782 0.010092232
000060 f9 e3 ca bd b1 cf b3 bf e0 ef f4 be a5 29 12 bf
       -0.099067636 -1.4047757 -0.4783926 -0.57094795
000070 bb e8 f9 3b f2 0e 77 bf 68 68 c3 3e 46 48 a8 3e
       0.0076266206 -0.9650718 0.38165593 0.3286764
000080 54 7f 9a 3d 7a 8e 52 3e 94 c6 4b 3e 86 db 19 be
       0.07543817 0.20562163 0.1989997 -0.15025148
000090 6c da 39 bf 46 73 c3 bc 80 e1 d1 3d 06 77 d0 3d
       -0.7259891 -0.023858678 0.10248089 0.10178952
0000a0 e5 60 0d be e3 ca e7 be 86 a0 63 3e cb b4 37 3d
       -0.13806494 -0.45271978 0.22229204 0.044850152
0000b0 ca 35 33 3e 6c cc 51 3f a3 6b 5f 3d 3c 99 bc 3d
       0.17500988 0.8195255 0.05454601 0.09208915
0000c0 9c ee 22 bb 35 aa 65 bf ac a8 81 be b2 a3 59 3f
       -0.002486146 -0.8971284 -0.25324 0.85015404
0000d0 e5 21 3f bc 0e 08 2e 3f f2 37 c9 bd d8 e2 59 3e
       -0.011665796 0.6798104 -0.09825124 0.2127794
0000e0 32 67 3f be 26 0f 6d be dd 78 83 be 63 cc 86 3e
       -0.1869171 -0.2315031 -0.2567815 0.2632781
0000f0 ba ea b1 bb c3 88 cf 3e 3b 9b 60 3c 7c 7b cf be
       -0.005429593 0.40534028 0.013708885 -0.405239
000100 9b e5 7b be 83 ff 92 be ff 30 00 3e 94 c1 8a 3d
       -0.24599306 -0.28710565 0.1251869 0.06775203
000110 96 24 00 be f4 54 15 bf ee 5b d3 bc ea a4 27 3d
       -0.12513956 -0.58332753 -0.025800671 0.04092876
000120 45 7f 77 3d f5 c4 e9 3e b7 76 15 be 49 ce 26 3e
       0.060424108 0.4565808 -0.14596067 0.16289629
000130 92 d1 9e 3d bb c8 cc bc 93 4a 91 be 88 f3 03 3e
       0.07754816 -0.02499806 -0.28377208 0.12885869
000140 03 4e e7 bc b9 18 6b be e0 84 42 3e 86 0c a7 3e
       -0.028235441 -0.2295865 0.18996 0.32626742
000150 a5 89 7c 3d a2 d9 0a bf f4 bf 29 3e 9d 42 52 3d
       0.061654706 -0.5423833 0.1657713 0.05133306
000160 92 2c b9 3d f2 df 28 be 59 0b 94 bf 2f fb 30 bf
       0.09041704 -0.16491678 -1.1565963 -0.69133276
000170 2c 34 c7 3e 37 36 46 bf 7a 81 23 3f 7b 88 49 be
       0.3890699 -0.77426475 0.6386944 -0.1968097
000180 8f ac ee bd ef 15 10 bd c4 6d 06 3f ce a7 91 3e
       -0.11654007 -0.035177168 0.5251124 0.28448337
000190 da 17 01 bf dc 06 3b 3d 03 98 89 3d 33 65 09 be
       -0.5042702 0.04566084 0.06718447 -0.1341751
0001a0 6d 30 31 3e 74 69 37 3f 1e c9 73 be 00 f2 05 3e
       0.17303629 0.71645284 -0.23807189 0.13080597
0001b0 4b 44 0e be 16 3b 9c 3d 6b 01 54 be 0e 7c b4 3e
       -0.13893239 0.07628457 -0.20703666 0.35250896
0001c0 97 9e 06 3e 69 1a dc be 9b b5 51 b9 4b 42 3e 3d
       0.13146435 -0.429889 -0.00019999447 0.04644994
0001d0 7e 0a 09 3f b1 b3 f9 3e 3b b1 fd bd 83 78 a4 be
       0.53531635 0.48769906 -0.1238732 -0.32123193
0001e0 08 67 4b 3e 6a 05 5b be f8 a6 80 bf f7 66 bd 3e
       0.19863522 -0.21388784 -1.0050955 0.36992618
0001f0 37 c7 51 3e 85 be f8 be dd 72 af 3d 90 87 fb be
       0.2048615 -0.48582855 0.0856683 -0.49126863
000200 97 29 35 bf 32 b5 c7 be a6 13 4d bc 0b c8 2c 3e
       -0.70766586 -0.3900543 -0.012516892 0.16873185
000210 20 17 a5 be a1 47 20 bf 4f 8b 82 bc d8 58 d8 be
       -0.32244205 -0.626093 -0.015935568 -0.42255282
000220 9a 77 89 be a3 d8 c4 3d 76 1a cd 3d 24 37 09 be
       -0.2684906 0.09611633 0.10014813 -0.1339994
000230 3f e6 8d 3a 8a 46 16 3d 1a 5e 25 bf 2f df a6 3d
       0.0010826065 0.036688365 -0.6459671 0.08148038
000240 7c 5f 1d be 23 5c bf be 70 8e ab bd 56 c1 ef 3d
       -0.15368456 -0.37374982 -0.08376777 0.11706798
000250 14 71 6c bd 62 f2 f8 3e 8b bd 38 3d be 92 55 bd
       -0.057725027 0.48622423 0.045102637 -0.052141897
000260 5f 21 a6 3d 5d d8 fd be ad 50 62 bf f5 5c 7d be
       0.08111834 -0.49579135 -0.8840435 -0.24742492
000270 97 16 8e 3e f3 de 3b bf 60 4a 3c 3e 7e 89 e9 3c
       0.2775161 -0.7338707 0.18387747 0.028507944
000280 7a 78 c1 3d 89 82 db 3d af a8 0f 3f 8a e4 63 3e
       0.09446807 0.10718257 0.56116766 0.2225515
000290 d1 e4 05 bf 85 c9 8f 3d 98 3a 68 3c cd 45 7b bd
       -0.5230227 0.07020859 0.014174126 -0.061345864
0002a0 b3 cf 02 3e ba d4 9f 3c de 95 0f 3d 7d 41 e7 3c
       0.12774543 0.019510616 0.035055034 0.02822947
0002b0 5b 50 11 3e c9 06 60 be 15 f8 b2 3e 31 e0 2a 3f
       0.1419081 -0.21877588 0.34954897 0.6674834
0002c0 31 e9 1a 3e b5 d5 42 bf 27 d6 85 be 22 75 d7 3e
       0.15128018 -0.7610734 -0.26139948 0.42081553
0002d0 5f 83 97 3e c1 f6 d2 3e 77 36 00 bc ed bc f3 be
       0.29592416 0.41203883 -0.007825485 -0.47605076
0002e0 fb 10 24 be 18 82 10 3e c0 f3 fa be 5c 45 bf 3e
       -0.16022103 0.14112127 -0.49014091 0.37357605
0002f0 90 ec 34 be d0 fa 1a 3e 89 b7 9c bd 21 ed 61 bf
       -0.17668366 0.1513474 -0.07652194 -0.88252455
000300 30 ca 2b bf ac 14 0d be a4 e3 c3 be 32 26 3d 3e
       -0.6710539 -0.13777417 -0.38259614 0.18471602
000310 66 2d a8 be e2 05 62 bf dc f5 0e bd 89 76 b1 3e
       -0.32847136 -0.88290226 -0.03490244 0.34660748
000320 24 b9 d6 bd 9a 10 00 3f 60 48 12 3e a9 15 85 3e
       -0.104845315 0.5002533 0.14285421 0.25993088
000330 93 05 fc 3c 42 e1 49 3e f6 37 16 bf ca 3a 22 3f
       0.030764377 0.19714835 -0.5867914 0.63370955
000340 d3 ba d3 be 89 d5 e2 bd 70 40 99 3c 34 f6 88 be
       -0.41353473 -0.11075885 0.018707484 -0.26750338
000350 04 31 a6 3d bc 10 af 3b 9d f3 f5 3d 7a bd 20 3e
       0.08114818 0.005342571 0.12009356 0.1569728
000360 03 3a 38 bd 7c fc 6c be d5 1e 02 bf 2c 90 f8 be
       -0.0449772 -0.2314319 -0.50828296 -0.48547494
000370 ba ae 10 3f 6d de 96 bf 51 07 ab be 88 d5 8c 3e
       0.5651661 -1.1786629 -0.3340402 0.2750666
000380 e1 64 2b bd 1c 68 01 3d b6 ca d2 3e 78 9e 2e be
       -0.041844252 0.031593427 0.4117028 -0.17052639
000390 e1 7b 13 be b8 8e 2c 3e e5 24 a9 bc e9 44 ad bd
       -0.14402725 0.16851318 -0.020647475 -0.08460409
0003a0 b8 87 0c 3e 2e a0 e1 3e d4 66 78 3e a9 ab fc 3d
       0.13723648 0.4406752 0.24257976 0.12337429
0003b0 5a fb 1d 3d 11 b0 30 bf 43 8d 87 be 6e 5b 09 be
       0.038569786 -0.69018656 -0.26474962 -0.13413784
0003c0 1c 1d 04 3e 99 65 90 be 16 b9 3b be 39 69 e2 bd
       0.1290173 -0.28202513 -0.18332323 -0.11055226
0003d0 29 56 ab 3e f0 78 54 3f ef 7e ec bd 91 41 7e be
       0.33464172 0.82997036 -0.11547648 -0.24829699
0003e0 3e 95 c9 3e 27 c3 10 3e 24 5f 0e bf 24 3d 87 3e
       0.39371675 0.14136945 -0.55613923 0.26413834
0003f0 6e 66 44 3e b1 e8 49 bb 59 69 9e bd 4f 49 42 bf
       0.19179699 -0.003080886 -0.07734937 -0.7589311

fc.bias f4 [8]
000000 22 28 da 3e 65 9e 66 3e fb 81 30 3e be 02 10 3e
       0.42608744 0.2252136 0.17237084 0.14063546
000010 bc dc 5f 3e 79 e0 cc bc 4e 10 f7 3c cf c3 24 3d
       0.21861547 -0.02500938 0.030159142 0.0402258
