modelo_treinado.pth (torch, 98976 bytes, 8 tensors)

layer1.0.weight f4 [16, 3, 3, 3]
0.14968516 -0.16782832 -0.29670376 0.022623701 -0.3159962 -0.22190326 0.38230255 -0.025330309
-0.20519264 0.31715554 -0.08536186 0.03188988 0.22721072 0.027930673 -0.2001556 0.27589557
-0.0060895113 -0.25886527 0.48692748 -0.05624163 -0.15535569 0.4983125 0.025860945 -0.30923942
0.18713848 0.12019568 -0.19407588 0.34648332 0.2036202 -0.07790267 0.049263448 0.3013751
0.11976596 0.17789519 0.19272742 0.0665566 0.16858506 0.07753414 0.38465923 0.25579193
0.040368427 0.32895926 0.16580419 0.3324364 0.25665498 0.10518499 -0.38835546 -0.28411376
-0.11002104 -0.27803957 -0.14370441 -0.3057432 -0.27998987 -0.08336433 -0.20728734 -0.06423716
0.033777457 -0.07170122 0.016814524 0.08947658 -0.040269487 -0.031395003 -0.23832968 -0.011746983
-0.00023687608 0.05626461 0.10892687 0.099743575 -0.11066117 0.05645015 0.021035392 0.17258963
0.02699082 0.1682566 -0.14377385 0.028697805 0.28483412 0.07519487 0.18002854 0.20565353
0.102844864 -0.01929294 -0.2760394 0.25228053 -0.13275716 -0.36087736 0.19130127 -0.30486947
-0.33490553 0.046904776 -0.06453066 0.15740563 0.28992584 0.27580512 0.10953251 0.077367045
-0.044034787 0.063806966 0.31055853 0.15528084 -0.12754792 0.32789335 -0.15361398 -0.217387
0.058575906 -0.164645 -0.339093 0.0744802 0.15629645 0.054770745 0.028474947 0.15659654
0.010855878 0.069411725 0.25772458 -0.086260036 0.019987788 -0.3190359 -0.24814188 -0.038914956
-0.20434605 -0.18211292 -0.28361246 -0.11598066 -0.06385011 -0.25272787 -0.35075974 -0.09981965
-0.10876544 -0.2543092 -0.18890768 -0.0356301 0.15459801 -0.1499388 0.05352061 0.34654254
0.37983304 0.48727706 0.6842113 0.45059514 0.69684196 0.69963205 0.6223278 0.8693287
-0.2543625 0.12051523 0.10526946 -0.15190765 0.115562506 -0.0943775 -0.21608411 0.15053323
0.042174354 -0.4788498 0.042837817 -0.12821159 -0.17540768 0.0015943635 -0.0009429166 0.09733827
0.20615306 -0.027142012 0.1772569 -0.1658814 0.06391605 0.15386707 0.009600323 0.19703692
-0.13532954 0.1831183 0.08079223 0.15893982 0.06702811 0.26142815 0.17140831 0.07703466
0.10102308 0.3331162 0.17951138 0.07630131 -0.28660917 -0.2755566 -0.22870603 -0.097451285
-0.0710199 -0.21288937 -0.26060277 -0.12381591 -0.1534644 0.16850032 -0.16513275 0.08019765
0.040419176 0.017987953 0.077945285 0.12827577 -0.28295836 -0.20805933 0.19884 0.14749807
0.28055394 0.19855128 0.3864149 0.46187264 0.3441831 0.15411428 0.21962428 -0.116382524
-0.36051708 -0.11924046 -0.16299261 -0.36593384 -0.016341636 -0.15088128 -0.5366013 -0.20987445
-0.26190147 -0.15781596 0.15925355 -0.15449828 -0.035037994 0.25707114 -0.117733106 -0.14550513
0.036023572 -0.10660048 0.053622473 -0.103956215 -0.23852704 -0.18453483 0.19401495 -0.31345785
-0.16306356 0.037316382 -0.14493282 0.014318313 0.49555138 -0.1700055 -0.0716727 0.40832132
-0.030451557 -0.07738245 0.15821882 0.12777415 0.08867802 0.30360356 0.07373064 0.25196785
0.16989534 0.022911655 -0.0057229525 -0.05323899 -0.3601325 -0.44104034 0.020307317 -0.027131759
00000000: 1147 193e 30db 2bbe 8ee9 97be 5755 b93c
00000010: 41ca a1be 9c3a 63be 29bd c33e 8281 cfbc
00000020: 051e 52be 3662 a23e 33d2 aebd f69e 023d
00000030: eda9 683e dece e43c 97f5 4cbe 2f42 8d3e
00000040: 868a c7bb fd89 84be 8f4e f93e a05d 66bd
00000050: 9015 1fbe d122 ff3e 55da d33c a154 9ebe
00000060: 3ba1 3f3e 2729 f63d d4bb 46be 4366 b13e
00000070: d081 503e 6f8b 9fbd 78c8 493d d64d 9a3e
00000080: db47 f53d 282a 363e 565a 453e d44e 883d
00000090: 90a1 2c3e 38ca 9e3d 0ef2 c43e 29f7 823e
000000a0: 5d59 253d 596d a83e 93c8 293e 1b35 aa3e
000000b0: 4868 833e 3a6b d73d 87d6 c6be 5c77 91be
000000c0: b652 e1bd 345b 8ebe 4027 13be 5f8a 9cbe
000000d0: d55a 8fbe ebba aabd 2243 54be c68e 83bd
000000e0: 3b5a 0a3d 17d8 92bd 9dbe 893c 7f3f b73d
000000f0: 9ef1 24bd 0c98 00bd b20c 74be 6b76 40bc
00000100: f061 78b9 b875 663d 0d15 df3d 5c46 cc3d
00000110: 53a2 e2bd 4638 673d 6a52 ac3c 56bb 303e
00000120: da1b dd3c 754b 2c3e 7439 13be a917 eb3c
00000130: c7d5 913e c5ff 993d 6759 383e d796 523e
00000140: 54a0 d23d 3a0c 9ebc 0955 8dbe ea2a 813e
00000150: 7ef1 07be ebc4 b8be 7be4 433e da17 9cbe
00000160: bd78 abbe 391f 403d a728 84bd f12e 213e
00000170: 2971 943e 5436 8d3e 9552 e03d 9d72 9e3d
00000180: d25d 34bd 3aad 823d 8701 9f3e f101 1f3e
00000190: ec9b 02be a3e1 a73e fc4c 1dbe b39a 5ebe
000001a0: 4aed 6f3d b398 28be 999d adbe 1389 983d
000001b0: 2d0c 203e 4a57 603d 4b44 e93c d85a 203e
000001c0: dadc 313c bc27 8e3d 7af4 833e 1aa9 b0bd
000001d0: 6ebd a33c ac58 a3be e818 7ebe 4a65 1fbd
000001e0: 1740 51be cf7b 3abe a735 91be 4587 edbd
000001f0: d9c3 82bd 8c65 81be c896 b3be 3f6e ccbd
00000200: 6ac0 debd d134 82be 0471 41be def0 11bd
00000210: f14e 1e3e 8f89 19be 6d38 5b3d 066e b13e
00000220: 7a79 c23e 617c f93e 7928 2f3f 68b4 e63e
00000230: 3c64 323f 161b 333f e050 1f3f 538c 5e3f
00000240: cd3b 82be b0d0 f63d 8497 d73d ae8d 1bbe
00000250: 09ac ec3d fe48 c1bd 2745 5dbe 6225 1a3e
00000260: 04bf 2c3d cd2b f5be b576 2f3d e649 03be
00000270: 129e 33be f6f9 d03a 102e 77ba 4959 c73d
00000280: ca19 533e ed58 debc d582 353e d0dc 29be
00000290: 6be6 823d 548f 1d3e ac4a 1d3c 0cc4 493e
000002a0: d493 0abe 5d83 3b3e 6676 a53d 1fc1 223e
000002b0: 0946 893d e9d9 853e a985 2f3e 59c4 9d3d
000002c0: 30e5 ce3d 358e aa3e d5d1 373e dc43 9c3d
000002d0: 70be 92be c115 8dbe ea31 6abe 8a94 c7bd
000002e0: e272 91bd acff 59be ba6d 85be 3293 fdbd
000002f0: c625 1dbe 598b 2c3e 8f18 29be aa3e a43d
00000300: 948e 253d 795b 933c c7a1 9f3d b95a 033e
00000310: ebdf 90be 810d 55be b79c 4b3e bc09 173e
00000320: c4a4 8f3e 0751 4b3e 2cd8 c53e 927a ec3e
00000330: c438 b03e 22d0 1d3e 30e5 603e f659 eebd
00000340: b295 b8be 5834 f4bd 89e7 26be ae5b bbbe
00000350: e5de 85bc 9f80 1abe b45e 09bf 54e9 56be
00000360: f317 86be 829a 21be 5d13 233e cc34 1ebe
00000370: 0084 0fbd d49e 833e 0e1e f1bd 4cff 14be
00000380: 748d 133d 5a51 dabd 3da3 5b3d ffe6 d4bd
00000390: 6f40 74be b3f6 3cbe dbab 463e 8c7d a0be
000003a0: 22fa 26be 10d9 183d 4569 14be 5c97 6a3c
000003b0: e9b8 fd3e ec15 2ebe 23c9 92bd 7e0f d13e
000003c0: 8b75 f9bc b17a 9ebd 1d04 223e 3ad7 023e
000003d0: d29c b53d ed71 9b3e 1700 973d ee01 813e
000003e0: 0bf9 2d3e 39b1 bb3c 9b87 bbbb 2111 5abd
000003f0: 4963 b8be 0ad0 e1be 885b a63c 6c43 debc

layer1.0.bias f4 [16]
-0.019057995 0.12367474 0.36640334 0.1357168 -0.17190462 -0.16934215 0.32753477 -0.2658796
-0.28821284 0.10014167 -0.16307545 0.07982879 -0.1108118 -0.15067141 -0.21153295 -0.06978982
00000000: 831f 9cbc 2f49 fd3d 3899 bb3e 58f9 0a3e
00000010: c407 30be 0768 2dbe a3b2 a73e 5f21 88be
00000020: a290 93be 1317 cd3d 40fd 26be 477d a33d
00000030: 4cf1 e2bd 9b49 1abe 189c 58be f7ed 8ebd

layer2.0.weight f4 [32, 16, 3, 3]
0.03457153 0.09557271 0.04925952 0.08685576 0.16533445 0.027880266 0.05921413 0.1649594
0.13647446 0.08415981 -0.070544995 -0.094246656 0.18460074 0.118863285 -0.07178281 0.20259216
0.11913539 -0.060277894 -0.04059208 -0.13040823 -0.08439412 -0.10232108 -0.15912072 -0.123352066
-0.07341675 -0.14262567 -0.07380755 -0.12971154 -0.15680504 -0.060849864 -0.015316432 -0.056191504
0.00024325858 0.08388087 0.050922867 -0.031662717 -0.57405615 -0.5879612 -0.29173154 -0.25310308
-0.2723186 -0.1217599 0.07585789 0.008095339 -0.039070565 0.09961613 -0.14415777 -0.19807716
0.110819854 -0.1587494 -0.2455103 0.12165071 -0.17915207 -0.081608966 -0.12330006 -0.11190112
-0.27646428 0.00094811275 -0.04428813 -0.16428669 -0.02049589 -0.035324544 -0.14400816 0.23171335
0.29056746 -0.0034228927 0.3506419 0.49314067 0.27862173 0.36742797 0.4378892 0.15500623
-0.30944854 -0.3678504 -0.24973595 -0.0768499 -0.28893936 -0.08125405 -0.027410047 -0.049701635
-0.07948368 -0.7035257 -0.62597114 -0.37170923 -0.39818674 -0.4790924 -0.16819638 0.00938142
0.021730706 -0.077081114 0.12963362 -0.062416025 -0.054133214 0.029947264 -0.018938001 -0.07616092
0.036249198 0.04546034 0.07981197 0.18751717 0.044417933 -0.00818194 0.121769994 0.07266684
0.053492013 0.11700082 0.014976846 0.032416154 0.09758769 -0.06181121 -0.08200313 -0.05638592
-0.07950334 -0.0046930006 -0.026378067 -0.092180185 0.054020148 0.04122673 0.06581376 0.109142035
0.11004972 0.14332868 0.06594713 0.15170503 0.19690897 0.1490247 0.069938056 -0.017284522
0.07278654 0.13222978 0.18585682 0.2175283 0.22635563 0.3165833 0.13547248 0.22490206
-0.14941041 -0.032374706 0.35865143 0.054621346 -0.12724727 0.35667646 0.20978849 -0.04335544
-0.11391424 -0.22183648 -0.15715063 0.041078337 -0.11518196 -0.21116167 0.048882507 -0.09688665
-0.14161862 -0.03437757 -0.06559856 0.07855318 0.018661339 -0.01530548 0.12551518 -0.05595116
0.0028156617 0.069002956 -0.13873775 -0.07619132 -0.1399767 -0.19762303 -0.14833008 -0.020184727
0.014333514 -0.042122837 -0.0003464579 0.16491295 0.22065134 0.117024295 0.17210205 0.24621274
0.16303222 -0.028679887 0.17117502 0.069822975 -0.16025983 -0.09982409 -0.047688656 0.04541781
0.058573086 -0.054875072 -0.05434958 0.09570616 -0.07501294 -0.23934956 -0.151037 -0.025914099
-0.15834357 -0.012601241 -0.053276267 0.06537874 0.01332103 0.11856449 0.032397073 -0.031091908
0.009200345 0.05557048 0.0043685464 0.13482927 0.063325875 0.11739194 0.17270894 0.047286104
0.2362427 0.14591631 0.1728643 0.19847499 0.22189541 0.18479928 0.27734414 0.13200843
-0.11305946 -0.10493936 -0.029650686 -0.06694026 0.09107768 -0.086986795 -0.033725515 0.011507508
0.024808267 -0.04795343 0.0017319808 -0.09616737 -0.07542168 -0.0045993994 0.04675207 0.061541565
0.12484791 0.059427194 -0.19787839 -0.060878415 0.012334337 -0.19255267 -0.27677578 -0.13504644
0.079933316 -0.051634707 0.18502401 0.13146164 -0.06535401 0.10002002 0.155371 0.013175835
0.08256826 0.07639841 0.050503515 -0.029110441 -0.15271367 -0.027833333 -0.078715734 -0.3525639
00000000: e09a 0d3d a0bb c33d 5ac4 493d 6fe1 b13d
00000010: 6f4d 293e 2865 e43c 848a 723d 1eeb 283e
00000020: f6bf 0b3e fa5b ac3d e579 90bd 6404 c1bd
00000030: fa07 3d3e 986e f33d de02 93bd 5274 4f3e
00000040: 41fd f33d f4e5 76bd e243 26bd bc89 05be
00000050: d3d6 acbd b78d d1bd 8bf0 22be 02a0 fcbd
00000060: 855b 96bd 770c 12be 6a28 97bd 1ad3 04be
00000070: 8091 20be b53d 79bd c6f1 7abc 1029 66bd
00000080: 3a13 7f39 bcc9 ab3d 7f94 503d c4b0 01bd
00000090: 58f5 12bf a084 16bf d65d 95be ba96 81be
000000a0: 586d 8bbe 415d f9bd 625b 9b3d 50a2 043c
000000b0: 7508 20bd 8b03 cc3d 189e 13be bdd4 4abe
000000c0: 85f5 e23d 348f 22be 0d67 7bbe 0224 f93d
000000d0: a473 37be 9a22 a7bd be84 fcbd 6a2c e5bd
000000e0: ba8c 8dbe c58a 783a 7867 35bd c53a 28be
000000f0: ffe6 a7bc 78b0 10bd e076 13be 4446 6d3e
00000100: 42c5 943e 9c52 60bb 5687 b33e ef7c fc3e
00000110: 82a7 8e3e 851f bc3e 0333 e03e f4b9 1e3e
00000120: 0a70 9ebe e356 bcbe c8ba 7fbe 7b63 9dbd
00000130: dcef 93be 8668 a6bd 098b e0bc f193 4bbd
00000140: 57c8 a2bd 431a 34bf a53f 20bf ac50 bebe
00000150: 22df cbbe 994b f5be ac3b 2cbe 87b4 193c
00000160: 9804 b23c b4dc 9dbd adbe 043e f2a7 7fbd
00000170: caba 5dbd f753 f53c de23 9bbc 42fa 9bbd
00000180: 0a7a 143d 9f34 3a3d 7574 a33d 8004 403e
00000190: 94ef 353d 8b0d 06bc 8c62 f93d 5ad2 943d
000001a0: 711a 5b3d 209e ef3d 7261 753c cdc6 043d
000001b0: 0edc c73d c02d 7dbd 42f1 a7bd ecf4 66bd
000001c0: a6d2 a2bd bec7 99bb d116 d8bc f7c8 bcbd
000001d0: 3b44 5d3d 5cdd 283d 5dc9 863d dc85 df3d
000001e0: bf61 e13d c1c4 123e 4a0f 873d 9058 1b3e
000001f0: 81a2 493e ee99 183e af3b 8f3d 4598 8dbc
00000200: 1c11 953d 3e67 073e 4051 3e3e bdbf 5e3e
00000210: c5c9 673e 3517 a23e 4cb9 0a3e ba4c 663e
00000220: 0bff 18be 579b 04bd 29a1 b73e a2ba 5f3d
00000230: 1c4d 02be 4c9e b63e cbd2 563e 7995 31bd
00000240: de4b e9bd 1a29 63be 18ec 20be c241 283d
00000250: 85e4 ebbd c43a 58be 0639 483d 826c c6bd
00000260: 7904 11be 7fcf 0cbd 8a58 86bd 7de0 a03d
00000270: aadf 983c d6c3 7abc 0d87 003e 0b2d 65bd
00000280: f786 383b 6c51 8d3d 4511 0ebe 320a 9cbd
00000290: 0d56 0fbe b15d 4abe d7e3 17be 715a a5bc
000002a0: 1dd7 6a3c ff88 2cbd cba4 b5b9 f1de 283e
000002b0: 6df2 613e 6faa ef3d 853b 303e 311f 7c3e
000002c0: ebf1 263e 15f2 eabc 8148 2f3e 59ff 8e3d
000002d0: 271b 24be 9370 ccbd 2e55 43bd 0708 3a3d
000002e0: 55ea 6f3d afc4 60bd aa9d 5ebd 9701 c43d
000002f0: 62a0 99bd 0d18 75be 71a9 1abe ce49 d4bc
00000300: d124 22be 6f75 4ebc 3738 5abd 4ae5 853d
00000310: 7340 5a3c f0d1 f23d cbb2 043d 75b4 febc
00000320: 0bbd 163c df9d 633d 0626 8f3b af10 0a3e
00000330: ffb0 813d 2f6b f03d 9dda 303e 13af 413d
00000340: 9be9 713e 166b 153e 5703 313e 073d 4b3e
00000350: 8d38 633e 063c 3d3e 0d00 8e3e 382d 073e
00000360: b88b e7bd 72ea d6bd ffe5 f2bc fa17 89bd
00000370: ef86 ba3d 2226 b2bd c423 0abd fd89 3c3c
00000380: b53a cb3c d16a 44bd a203 e33a 66f3 c4bd
00000390: af76 9abd 8fb6 96bb 197f 3f3d 0213 7c3d
000003a0: 43b0 ff3d ee69 733d a2a0 4abe a55b 79bd
000003b0: f615 4a3c 872c 45be 8eb5 8dbe 9d49 0abe
000003c0: 14b4 a33d ea7e 53bd ef76 3d3e e19d 063e
000003d0: 53d8 85bd 4cd7 cc3d 9319 1f3e 75df 573c
000003e0: 8c19 a93d c576 9c3d c6dc 4e3d 0579 eebc
000003f0: f960 1cbe bb02 e4bc b735 a1bd 4183 b4be

layer2.0.bias f4 [32]
-0.19095872 -0.0783877 -0.061476797 -0.062500544 -0.3225891 0.076519884 -0.16094887 -0.02952346
0.100878 0.03130397 -0.038176242 -0.14477842 -0.1859241 -0.029541906 -0.15704899 -0.09439155
-0.026707765 0.03187272 -0.03217714 -0.08968529 0.07365638 0.06296477 0.1892282 -0.13045812
-0.12277025 -0.008012288 0.023595892 -0.12943627 0.06849713 -0.17590715 -0.060259342 0.05415094
00000000: af8a 43be bb89 a0bd 18cf 7bbd 4900 80bd
00000010: 662a a5be 75b6 9c3d c8cf 24be 2fdb f1bc
00000020: 2099 ce3d 9738 003d b15e 1cbd cb40 14be
00000030: e362 3ebe de01 f2bc 73d1 20be 5b50 c1bd
00000040: 3eca dabc f88c 023d 2dcc 03bd ecac b7bd
00000050: 28d9 963d acf3 803d 0ac5 413e d096 05be
00000060: f86e fbbd f945 03bc 2c4c c13c f18a 04be
00000070: 3948 8c3d 0121 34be 80d2 76bd 60cd 5d3d

layer3.0.weight f4 [64, 32, 3, 3]
-0.038454063 0.086307086 -0.23494367 0.08589128 0.27487808 0.096047014 -0.12618832 -0.04022113
-0.30031544 0.060001127 0.06862126 0.0050224536 0.18292215 0.20465595 0.18146028 0.05222456
0.16145739 0.16950558 -0.0723168 -0.11035053 -0.19275682 0.053112593 0.009305904 -0.09592955
0.04399082 0.10077701 0.005463527 0.071859896 0.09203546 0.032920368 0.13163777 0.14819004
0.16509533 0.09299877 0.15810929 0.045854807 -0.09716688 -0.048869822 -0.2289447 0.12906288
0.14057055 0.09179645 0.056924403 0.087656274 -0.13693166 0.03385853 -0.12978137 -0.20939255
0.13724783 0.08100264 -0.18307965 0.16499652 0.0083771655 -0.0837433 0.2102047 -0.47988522
-0.39414185 0.40541297 -0.03657219 0.30712768 0.22841297 -0.2121274 -0.12718764 0.26740643
0.15155534 0.0435997 0.19338779 0.16385452 0.09237549 0.2186906 0.18170123 -0.06880863
-0.003582102 -0.11840003 -0.17330173 0.19544339 -0.013759208 -0.17886475 0.11888493 0.12766865
-0.070796765 0.011867959 -0.095951594 0.013481333 0.026677007 -0.051462565 0.070310734 0.07005907
-0.057839114 0.04414873 -0.06802248 -0.21985418 -0.2783877 0.018281726 0.0977412 -0.032991808
0.0008308635 -0.023515735 -0.17386848 -0.06586826 -0.07465121 -0.2613005 0.13830623 0.29897735
0.22148708 0.11164272 0.05132433 -0.113070875 0.07028358 -0.16378649 -0.47051927 0.19639492
0.007573206 -0.3208305 0.17787011 0.07194857 -0.14212075 -0.10388978 -0.35057124 -0.25192747
-0.00026673148 -0.083495565 0.016657388 -0.05208757 -0.10587525 -0.14001645 -0.22259271 -0.17984568
-0.38547412 0.19173166 0.14386223 -0.11776672 -0.075070255 -0.039411854 -0.42197865 -0.027745765
-0.02537202 -0.06308807 -0.007402751 -0.0011884287 0.033577044 -0.0057942295 0.08295777 0.115525216
-0.036672607 -0.023746964 -0.032025285 -0.15178956 -0.062414296 -0.045197725 -0.048746116 -0.023545684
0.009412509 -0.02920279 -0.01594826 -0.029061189 0.022949563 -0.030975122 -0.004596272 -0.039782505
-0.0070583913 -0.013835013 -0.1943715 -0.22418505 -0.27391768 -0.07988896 -0.073311195 -0.09156581
-0.10207113 -0.06683644 -0.2159087 -0.25799128 -0.31019163 -0.31318694 -0.03378636 0.07774343
-0.013320104 -0.16796996 0.032072917 -0.27701715 0.174486 0.098194204 -0.12801255 0.09406564
0.09508663 0.067202054 -0.0044194683 -0.016760977 0.010785017 -0.2649722 -0.5926997 -0.5335161
-0.13846982 -0.5057949 -0.3095749 -0.099206105 -0.50851196 -0.34962964 0.024834257 0.0070866817
-0.18632555 0.12720491 0.08299769 0.04076841 0.07856211 0.03137967 0.039537188 -0.35058737
-0.36189172 -0.2724541 -0.031768776 0.07381144 -0.030648153 -0.08400535 -0.083472826 -0.1501116
0.33028686 0.020401396 -0.61059296 0.29261112 -0.00022825533 -0.52009475 0.28908744 0.049062967
-0.24328631 0.06687387 -0.04257278 -0.13531218 0.08441288 0.10178057 -0.0025143002 0.14927551
0.05325224 -0.013816176 0.033957552 0.017800972 -0.049955804 0.23227032 0.16136727 0.12801331
0.1797272 0.16947289 0.0899799 -0.4193798 -0.24700427 -0.36523008 -0.1970955 -0.04963479
-0.20023766 -0.050932374 -0.0975416 -0.45104077 -0.02330399 -0.035728496 -0.04006148 -0.023671387
00000000: 0282 1dbd c5c1 b03d 1395 70be c4e7 af3d
00000010: d2bc 8c3e 4cb4 c43d 8337 01be e9be 24bd
00000020: f2c2 99be bec3 753d 4e89 8c3d 6593 a43b
00000030: f24f 3b3e 5491 513e b9d0 393e 6ce9 553d
00000040: 1655 253e df92 2d3e d51a 94bd 75ff e1bd
00000050: 0b62 45be 978c 593d ca77 183c b676 c4bd
00000060: b82f 343d 2d64 ce3d 6307 b33b 482b 933d
00000070: 167d bc3d 82d7 063d 0dcc 063e 21bf 173e
00000080: c00e 293e 2476 be3d 67e7 213e 40d2 3b3d
00000090: 6eff c6bd b92b 48bd 7b70 6abe 0f29 043e
000000a0: baf1 0f3e c7ff bb3d 9029 693d 2285 b33d
000000b0: d037 0cbe 3eaf 0a3d 68e5 04be 006b 56be
000000c0: b28a 0c3e b6e4 a53d 3b79 3bbe d9f4 283e
000000d0: 6140 093c 9b81 abbd e73f 573e 84b3 f5be
000000e0: f6cc c9be 4a92 cf3e b8cc 15bd d73f 9d3e
000000f0: 17e5 693e ed37 59be 7a3d 02be 7fe9 883e
00000100: 5331 1b3e 9995 323d 7307 463e 7bc9 273e
00000110: 5c2f bd3d 6ef0 5f3e e30f 3a3e 8aeb 8cbd
00000120: b3c1 6abb b77b f2bd 0276 31be 5022 483e
00000130: 4d6e 61bc 5228 37be f179 f33d 92bb 023e
00000140: e5fd 90bd d471 423c 4582 c4bd cfe0 5c3c
00000150: bd89 da3c 69ca 52bd 13ff 8f3d 217b 8f3d
00000160: b5e8 6cbd 4cd5 343d 5f4f 8bbd 7421 61be
00000170: d588 8ebe 8fc3 953c 8a2c c83d 6b22 07bd
00000180: 4ece 593a 12a4 c0bc 940a 32be f0e5 86bd
00000190: bce2 98bd 2ec9 85be 26a0 0d3e 8f13 993e
000001a0: 82cd 623e f0a4 e43d 7639 523d b491 e7bd
000001b0: d6f0 8f3d a5b7 27be e7e7 f0be c01b 493e
000001c0: a828 f83b e543 a4be 9523 363e c659 933d
000001d0: 1a88 11be 2ac4 d4bd 137e b3be a3fc 80be
000001e0: 18d8 8bb9 b9ff aabd 1375 883c c759 55bd
000001f0: 20d5 d8bd 7960 0fbe 58ef 63be 7729 38be
00000200: dd5c c5be 4e55 443e 9f50 133e ae2f f1bd
00000210: 6fbe 99bd 536e 21bd 960d d8be 164b e3bc
00000220: fcd8 cfbc 5134 81bd c792 f2bb 0dc5 9bba
00000230: 1588 093d 85dd bdbb c3e5 a93d 7c98 ec3d
00000240: 0436 16bd fe88 c2bc f22c 03bd b96e 1bbe
00000250: 22a6 7fbd 4021 39bd 02aa 47bd e1e2 c0bc
00000260: ed36 1a3c b13a efbc eda5 82bc bb11 eebc
00000270: b900 bc3c 8abf fdbc 539c 96bb fbf2 22bd
00000280: 144a e7bb 40ac 62bc 5309 47be c490 65be
00000290: f03e 8cbe d39c a3bd 2e24 96bd db86 bbbd
000002a0: ab0a d1bd 8be1 88bd 2c17 5dbe 6f17 84be
000002b0: 70d1 9ebe 0a5a a0be 9163 0abd f337 9f3d
000002c0: 913c 5abc 5100 2cbe e45e 033d 31d5 8dbe
000002d0: 75ac 323e 0b1a c93d b915 03be 7ca5 c03d
000002e0: c7bc c23d 3ba1 893d 30d1 90bb 514e 89bc
000002f0: a4b3 303c 70aa 87be 2bbb 17bf 8394 08bf
00000300: 08cb 0dbe c67b 01bf 9a80 9ebe 922c cbbd
00000310: d72d 02bf a802 b3be 3671 cb3c 6537 e83b
00000320: 20cc 3ebe 0142 023e b1fa a93d c7fc 263d
00000330: 2ce5 a03d f887 003d bff1 213d 3080 b3be
00000340: df49 b9be 1b7f 8bbe fa1f 02bd 742a 973d
00000350: d611 fbbc ff0a acbd cdf3 aabd dbb6 19be
00000360: 5c1b a93e d420 a73c d24f 1cbf 20d1 953e
00000370: d357 6fb9 ee24 05bf 4503 943e 40f6 483d
00000380: 0c20 79be 2bf5 883d cc60 2ebd 478f 0abe
00000390: a9e0 ac3d 5572 d03d f5c6 24bb aedb 183e
000003a0: 051f 5a3d 3e5d 62bc 1317 0b3d 58d3 913c
000003b0: 759e 4cbd 45d8 6d3e 763d 253e ec15 033e
000003c0: 680a 383e 4d8a 2d3e 6247 b83d f3b8 d6be
000003d0: b0ee 7cbe 70ff babe 67d3 49be d94d 4bbd
000003e0: 1a0b 4dbe 779e 50bd e4c3 c7bd d1ee e6be
000003f0: 02e8 bebc 0b58 12bd 8217 24bd 7fea c1bc

layer3.0.bias f4 [64]
0.09511344 -0.06365473 0.028296266 -0.047360644 -0.06682275 -0.023815371 -0.07562325 0.120711125
0.0752763 -0.0871575 -0.04004014 -0.07338216 -0.0003511218 -0.017036404 -0.104086824 -0.05231399
0.09668821 -0.17861795 -0.08795537 0.10982784 -0.10174491 -0.14676577 -0.016918613 0.08795362
0.015074908 0.07928422 0.2859334 -0.06820713 -0.09880241 0.07389706 -0.011992584 -0.0037096895
0.119668595 0.016342787 0.03060888 -0.009868782 -0.051245518 0.025089141 0.0796657 -0.012148144
0.055484306 -0.049003273 -0.060382567 -0.07381224 -0.099441275 -0.13301446 -0.05484011 -0.071141265
-0.025557762 -0.11033574 0.08245114 -0.1740906 0.041773718 0.010152073 -0.019190937 -0.07968166
-0.032618757 0.010395309 0.04072961 0.025422538 0.05843962 0.10240108 -0.07912324 0.12495916
00000000: d6ca c23d 695d 82bd 92cd e73c 3cfd 41bd
00000010: 5eda 88bd 7418 c3bc 5de0 9abd 6537 f73d
00000020: 762a 9a3d a27f b2bd 2101 24bd 6349 96bd
00000030: c516 b8b9 ee8f 8bbc 792b d5bd 3247 56bd
00000040: 7804 c63d a0e7 36be f221 b4bd 6bed e03d
00000050: a35f d0bd c449 16be e798 8abc 0721 b43d
00000060: bffc 763c c45f a23d dd65 923e 2eb0 8bbd
00000070: eb58 cabd 5757 973d 8b7c 44bc 431e 73bb
00000080: cf14 f53d 4fe1 853c 79bf fa3c acb0 21bc
00000090: d2e6 51bd be87 cd3c c527 a33d 0209 47bc
000000a0: 8343 633d a8b7 48bd b653 77bd df2a 97bd
000000b0: dea7 cbbd f134 08be 06a0 60bd 83b2 91bd
000000c0: 835e d1bc b4f7 e1bd 25dc a83d ce44 32be
000000d0: eb1a 2b3d e154 263c 5036 9dbc 2330 a3bd
000000e0: 3f9b 05bd 1651 2a3c 17d4 263d ed42 d03c
000000f0: 625e 6f3d a8b7 d13d 5e0b a2bd 97ea ff3d

fc.weight f4 [4, 64]
-0.31791234 0.14998662 0.1674863 -0.18092756 0.19416164 -0.50147295 -0.15151209 -0.5135719
-1.3868704 -0.10407652 0.16057815 -0.10362642 0.16911595 -0.23653421 0.13369124 0.2419267
-0.43048644 0.6490043 0.07806172 -0.32635513 0.36039317 0.01016943 0.18996108 -0.33734268
-0.11779814 -0.20778404 -1.5354878 -0.10663413 -0.029203532 8.7637345e-05 0.109413765 0.4172721
-0.3271915 0.2925227 -0.16008836 0.14447413 0.5640615 0.7138398 -0.60815 -0.010391876
0.39960447 0.14437217 0.11426732 0.10450211 -0.31054085 0.23369914 0.17234378 -0.037990298
-0.26011822 0.1799961 -0.47702608 0.1318532 -0.37609607 0.1771246 -0.17930461 -0.15890634
0.061079446 0.51306254 0.034856316 -0.1906308 -0.4220013 -0.016147202 0.053229105 -0.45247906
0.22986871 -0.15619782 0.054347992 -0.04480585 -0.08949119 0.18551622 -0.19331802 0.7833943
-0.7792648 -0.041618336 0.027516514 0.6653338 0.05965606 -0.18189773 -0.020845758 -0.07624638
0.5575942 -0.36116752 -0.19889003 0.6161435 -0.7195296 -0.11221716 -0.39937007 0.6519955
-0.15281466 0.60986334 -0.8797619 0.699484 -0.1935794 0.17927903 -0.10117963 0.21443658
0.57717294 -0.460088 0.57321846 0.17989068 -0.1178188 -0.28138852 0.30070853 -0.17730318
-0.4323415 0.06861855 -0.04302309 0.4274471 0.04028785 0.038030583 0.44196257 -0.21967956
-0.14431605 0.059685387 0.54301196 -0.15541157 0.38717133 0.0053971615 0.09726853 0.469157
-0.04819518 -0.4163697 -0.068832256 0.5020508 0.22474463 0.14734405 -0.19277671 0.28528556
0.15654387 -0.1557847 -0.11344908 0.22278988 -0.101196736 0.256979 0.013856899 -0.18717845
1.7425807 0.17192915 -0.057564117 -0.5547442 -0.20644394 0.111292824 0.18354942 -0.13779947
-0.13566856 -0.38200718 -0.16392459 0.0052331984 -0.24388902 0.11766277 0.081287056 -0.15454847
0.06440189 -0.47242185 1.8189706 -0.8407362 0.15034276 0.08697534 0.14923723 -0.37313935
-0.28175068 0.15744461 -0.29295987 -0.040454946 -0.60209244 -0.6361001 0.45480764 0.08276494
-0.11958565 0.06879076 -0.04729833 -0.5789833 0.33700305 -0.2217843 -0.8741937 -0.02320917
0.07465811 0.026798438 0.10929234 -0.23121326 0.26373518 -0.18996212 0.26462176 -0.28640625
0.06477578 -0.2363815 0.15479046 -0.39815846 -0.04155852 0.115744196 -0.090019695 0.40230954
-0.115014784 -0.11392932 -0.30818236 -0.16413213 0.23976092 0.06249173 0.5563358 -0.24906147
0.3561708 -0.18787435 -0.28982216 0.081117876 -0.07882615 0.13581795 -0.0671562 -0.17979656
0.019347055 0.040794108 0.3025834 -0.41596273 0.13568278 0.19869737 0.187227 -0.01613001
0.26119182 0.18978351 0.04641798 0.5942402 0.03827131 -0.44882545 -0.23866196 -0.32821545
-0.2776365 0.13799098 -0.26004815 -0.37846133 0.13368161 0.0145702 -0.2471636 0.3152174
-0.09644898 -0.3729878 -0.2047252 0.21250854 -0.15633862 0.12833267 0.20240133 0.38514882
0.36235306 -0.29034793 0.19523537 0.30889964 0.02587891 -0.09328401 -0.37251344 -0.13604248
-0.23405826 -0.007401732 -0.2592618 0.39547193 0.05763106 -0.4599322 0.17821975 -0.050825976
00000000: 68c5 a2be 1896 193e 8781 2b3e 1345 39be
00000010: 4fd2 463e 8860 00bf fc25 1bbe 7379 03bf
00000020: f884 b1bf 1226 d5bd 996e 243e 173a d4bd
00000030: bb2c 2d3e 0636 72be 5be6 083e a2bb 773e
00000040: b868 dcbe 2525 263f d3de 9f3d 0518 a7be
00000050: 7485 b83e ae9d 263c 2885 423e 2eb8 acbe
00000060: 2740 f1bd 57c5 54be dd8a c4bf ff62 dabd
00000070: 3f3c efbc f1c9 b738 5314 e03d b0a4 d53e
00000080: a585 a7be 89c5 953e 34ee 23be 07f1 133e
00000090: 5666 103f 35be 363f b8af 1bbf b042 2abc
000000a0: f598 cc3e 4cd6 133e fc04 ea3d 3405 d63d
000000b0: 36ff 9ebe d44e 6f3e e37a 303e b79b 1bbd
000000c0: 372e 85be e650 383e c33c f4be 8604 073e
000000d0: aa8f c0be 2760 353e a19b 37be 58b8 22be
000000e0: 712e 7a3d 1158 033f 7fc5 0e3d b834 43be
000000f0: 8e10 d8be 2347 84bc c306 5a3d 56ab e7be
00000100: b462 6b3e 52f2 1fbe 009c 5e3d 5786 37bd
00000110: 2847 b7bd f7f7 3d3e 29f5 45be 878c 483f
00000120: e67d 47bf fd77 2abd 506a e13c 5153 2a3f
00000130: ea59 743d 6643 3abe b9c4 aabc 1027 9cbd
00000140: 7ebe 0e3f f3ea b8be d4a9 4bbe 95bb 1d3f
00000150: 1833 38bf 1cd2 e5bd 3c7a ccbe 2de9 263f
00000160: 727b 1cbe 0120 1c3f 1338 61bf 6211 333f
00000170: ae39 46be ec94 373e 4437 cfbd 4395 5b3e
00000180: 9bc1 133f a890 ebbe 72be 123f 4335 383e
00000190: fc4a f1bd 2812 90be 78f6 993e f78e 35be
000001a0: dd5b ddbe e287 8c3d fb38 30bd 59da da3e
000001b0: df04 253d f5c5 1b3d eb48 e23e aef3 60be
000001c0: 96c7 13be aa78 743d d502 0b3f 3624 1fbe
000001d0: 523b c63e acda b03b b934 c73d 5935 f03e
000001e0: 4f68 45bd 692e d5be edf7 8cbd 6786 003f
000001f0: 7523 663e 5ce1 163e 4267 45be f310 923e
00000200: 094d 203e 0686 1fbe fe57 e8bd 0823 643e
00000210: 3c40 cfbd c092 833e 0c08 633c b5ab 3fbe
00000220: e20c df3f 320e 303e 5ac8 6bbd b703 0ebf
00000230: 0a66 53be 7eed e33d 61f4 3b3e 4e1b 0dbe
00000240: b3ec 0abe 7296 c3be d9db 27be 407b ab3b
00000250: 0bbe 79be 2ef9 f03d d479 a63d f441 1ebe
00000260: 23e5 833d 47e1 f1be 07d4 e83f 7d3a 57bf
00000270: 74f3 193e 2120 b23d a5d1 183e 1f0c bfbe
00000280: a041 90be 2939 213e d6fe 95be 16b4 25bd
00000290: bb22 1abf 75d7 22bf 8cdc e83e aa80 a93d
000002a0: 52e9 f4bd 2ce2 8c3d e5bb 41bd 4038 14bf
000002b0: aa8b ac3e 6c1b 63be 29cb 5fbf 2821 bebc
000002c0: 5ae6 983d 6688 db3c aad4 df3d 2bc3 6cbe
000002d0: 4c08 873e 6e85 42be 817c 873e d7a3 92be
000002e0: 2aa9 843d fe0d 72be 6481 1e3e 6ddb cbbe
000002f0: 4439 2abd 4b0b ed3d 3f5c b8bd 84fb cd3e
00000300: df8c ebbd c653 e9bd 14ca 9dbe 4112 28be
00000310: e383 753e 54f7 7f3d 066c 0e3f f809 7fbe
00000320: 055c b63e 2262 40be 9263 94be 2121 a63d
00000330: 9b6f a1bd dc13 0b3e 3189 89bd 971c 38be
00000340: b77d 9e3c b917 273d 36ec 9a3e 11f9 d4be
00000350: 6df0 0a3e 5377 4b3e 6fb8 3f3e 1523 84bc
00000360: efba 853e 9c56 423e c820 3e3d 2020 183f
00000370: 61c2 1c3d 73cc e5be cd63 74be db0b a8be
00000380: 5f26 8ebe 824d 0d3e 0825 85be afc5 c1be
00000390: d5e3 083e d9b7 6e3c 7418 7dbe 2d64 a13e
000003a0: 0b87 c5bd 42f8 bebe 7ca3 51be d79b 593e
000003b0: 3b17 20be a469 033e 4b42 4f3e 3a32 c53e
000003c0: 5786 b93e 7ca8 94be c8eb 473e 1828 9e3e
000003d0: 0200 d43c b00b bfbd 15ba bebe b84e 0bbe
000003e0: f8ac 6fbe 3a8a f2bb f6bd 84be 4c7b ca3e
000003f0: 8c0e 6c3d 3c7c ebbe 3d7f 363e e62e 50bd

fc.bias f4 [4]
-0.06266448 0.17598599 -0.029205598 -0.059557386
00000000: 3c56 80bd ac35 343e 9440 efbc 72f2 73bd
