Models/Task1/modelo_treinado_CNNModel2D_10_epochs.pth (torch, 99292 bytes, 8 tensors)

layer1.0.weight f4 [16, 3, 3, 3]
000000 a1 4c 68 bd 38 99 ae 3d 3b 4e 44 3e 8b 10 1b 3e
       -0.056713704 0.08525318 0.19170468 0.1514303
000010 2c be 2d 3e 1c 2e 37 3e dd 79 85 3e 81 c4 0f bb
       0.16967076 0.17888683 0.26069537 -0.0021937194
000020 83 66 97 3e 09 fb 68 bd 05 b2 c9 3c 91 2b a3 3d
       0.29570398 -0.05688003 0.02462102 0.07967294
000030 4a e2 95 3c 9d 76 71 39 29 42 d7 3d 0e 17 20 3e
       0.01829638 0.00023027738 0.10510666 0.15633795
000040 94 bb 65 3e e8 0b 59 3c db f4 03 3e 37 3f 11 3e
       0.22434837 0.013247468 0.12886374 0.14184271
000050 e0 c5 1d 3e e7 fe 05 be 5c 1c 52 3e 89 48 b6 3d
       0.15407515 -0.13085519 0.2051863 0.08900554
000060 47 54 a1 bd 95 28 a0 3a a3 e4 f2 bc f2 1b 14 be
       -0.07877403 0.0012219126 -0.029650038 -0.14463785
000070 80 8e ce bc 76 ed 38 bd b9 25 e0 3d aa 3e c6 bd
       -0.025214434 -0.045148335 0.10944695 -0.09679921
000080 06 e6 63 bd 4f 46 92 bd 26 7e e7 bd 9c 17 46 3e
       -0.05563929 -0.071423166 -0.11303358 0.19344944
000090 92 51 35 b9 51 5b e5 bc 4a 39 79 be 90 a7 50 be
       -0.00017291892 -0.027997645 -0.2433826 -0.2037642
0000a0 cb 06 0a be df 7c 3b be 79 3c 03 3e 3a f7 ac 3d
       -0.13479154 -0.18309353 0.12816037 0.08445592
0000b0 35 57 3f bd c9 06 19 be 73 21 ac 3d 72 44 86 3c
       -0.046714026 -0.14943995 0.084048174 0.01639006
0000c0 80 4e ee 3b 22 70 da bd 54 b7 16 be a9 c0 09 be
       0.0072725415 -0.10665919 -0.14718372 -0.134524
0000d0 f3 1e 8c 3b 95 3d 06 bd 37 02 79 3e 2b d0 fc bc
       0.0042761504 -0.032773573 0.24317251 -0.030860981
0000e0 91 c7 4c 3e 55 17 c4 bd 46 a6 70 be e7 6c 21 be
       0.19998004 -0.09574763 -0.23500928 -0.15764199
0000f0 e0 e5 20 3e b9 a4 1e be 7a 23 12 be 41 14 7b 3e
       0.1571269 -0.15492524 -0.14271346 0.24519445
000100 ae 1a 2d 3e 5d a8 f3 3d c6 38 8b 3d 57 84 53 3d
       0.16904709 0.11897347 0.06797938 0.05163988
000110 66 3d b2 3e 67 65 82 3e 21 2d 01 3e db 56 2b 3e
       0.34812468 0.2546799 0.12614872 0.16732351
000120 20 47 b5 3d e0 22 53 be d0 19 8d bd 2a 4f 3c be
       0.08851457 -0.20618773 -0.06889689 -0.18389574
000130 be ca 6a be 79 5c cc bd ef dd 0d 3b a4 6d 9c be
       -0.22928903 -0.09978575 0.0021647175 -0.305524
000140 be 47 18 be cc fb 31 bd b9 ee 7a 3e 81 59 7b 3e
       -0.14871117 -0.043453023 0.24505128 0.24545862
000150 ed 4a 27 3e f7 3e cf bd cd e1 89 bd 60 3c 68 bd
       0.16337176 -0.101194315 -0.06732521 -0.056698203
000160 53 36 3b 3d 7f e9 f4 3d 05 23 5e 3d 69 2c 4f 3e
       0.045706104 0.11958598 0.054232616 0.20231785
000170 1d b0 87 3e 88 66 ed 3d da 87 d5 3d 68 cd 50 bd
       0.2650155 0.11591822 0.10426302 -0.05097714
000180 ce 61 3d 3c 8d 0f 17 3c f2 8d c0 3d f0 e9 7c bc
       0.011558963 0.009220016 0.09402074 -0.015436634
000190 c2 09 34 3e 2a 37 0d bd 50 f4 23 be 54 93 4c be
       0.17581847 -0.034476437 -0.16011167 -0.19978076
0001a0 85 1a 5a be 50 26 7c bc 91 86 4a be 2f d2 d0 bd
       -0.21299179 -0.015389994 -0.19777896 -0.10196339
0001b0 e1 2f 71 bd d5 65 c3 bd 34 18 01 3e 31 f0 ab 3c
       -0.05888355 -0.09540907 0.12606889 0.020988556
0001c0 ec f0 27 3e 68 27 b2 3d 75 39 35 3e d7 1b d2 3d
       0.16400498 0.086989224 0.176977 0.10259216
0001d0 35 78 e9 bd 9f 80 77 be 49 59 8c be f5 ca e9 bd
       -0.11399881 -0.24170159 -0.2741187 -0.11415664
0001e0 9f 05 63 be 21 a7 71 be 12 dc b8 3d ba 43 11 be
       -0.22170113 -0.23598911 0.0902635 -0.14185992
0001f0 75 8f 2f 3e fa 64 2f 3e 29 8f a6 bc 16 fb 47 be
       0.17144568 0.17128363 -0.020331936 -0.19529375
000200 3b f7 9e 3d e6 f2 78 be 34 fe 45 3d 25 cb 21 3e
       0.07761999 -0.24311408 0.04833813 0.1580015
000210 76 29 49 bd 37 59 29 bd be 12 75 3e 3f f1 54 bd
       -0.049111806 -0.041344848 0.23932931 -0.051987883
000220 a9 b2 85 bc ae 12 22 3e d6 5f fb bc 2c 7c 4d 3d
       -0.016320543 0.15827438 -0.030685347 0.050167248
000230 97 3f 21 bd 33 8f 08 bc 49 19 4f bd 42 12 17 be
       -0.039367285 -0.008334923 -0.050561223 -0.14753059
000240 9c 04 74 3e d1 88 49 3e 41 54 94 3e aa d6 87 3e
       0.23829883 0.19681098 0.2897053 0.26530963
000250 86 ef 9c bd 1a 37 9f 3d 21 58 27 3c 3f 5c a0 3d
       -0.07662873 0.07774182 0.010213883 0.078300945
000260 17 04 23 bd 81 42 82 bd 14 d2 24 3b 74 9f f5 3d
       -0.039798822 -0.06360341 0.002514963 0.11993304
000270 86 9b 35 be 0a 12 2b be 85 61 79 be f6 cf aa bd
       -0.17735109 -0.167061 -0.24353607 -0.08340447
000280 5f 44 03 3e 19 60 b0 3d b0 f0 8f 3c 1e 5a f0 bc
       0.1281905 0.08612079 0.017570823 -0.029339846
000290 77 f2 4e 3d 19 e2 1e be 5e 13 c9 bd b3 1f 2e be
       0.0505242 -0.15515937 -0.09818147 -0.1700428
0002a0 56 a0 cb bd 7e 24 bd 3d 81 c2 3f be 61 4c 00 3e
       -0.09942691 0.09235476 -0.18726541 0.12529136
0002b0 ce 90 06 3e 23 e7 fa bd c9 f9 38 3e aa ff 93 bd
       0.13141176 -0.12251117 0.18064035 -0.072264984
0002c0 1f aa 84 3d 53 2e 00 3e a0 ea 26 3e fc bb 2b 3e
       0.064777605 0.12517671 0.1630044 0.16770929
0002d0 db a0 a2 3c 46 f0 e5 bc 83 69 17 3e 76 74 e5 bd
       0.019852092 -0.028068673 0.14786343 -0.11203854
0002e0 eb 23 09 3e 9f 3d 0b 3e d1 14 39 bc 23 3a 29 be
       0.13392608 0.13597725 -0.011296467 -0.16526084
0002f0 78 40 c1 bc 1d 4b 87 be da 1c 3b be d5 52 9e 3d
       -0.023590311 -0.26424494 -0.18272725 0.07730643
000300 5e c5 b1 bd 04 26 b2 bd 19 89 30 3d af 35 35 be
       -0.08680223 -0.08698657 0.043099497 -0.1769626
000310 40 a2 83 be d4 e6 27 be 77 ee d2 3d 61 ca 80 bd
       -0.25709724 -0.16396648 0.1029939 -0.06288601
000320 29 c2 0d 3e 1d af 4d be b1 4e 4c 3e 9b ce b8 bd
       0.13843597 -0.20086332 0.19951893 -0.09023782
000330 08 48 38 3d aa 72 0f be 88 40 93 3d a5 03 74 bd
       0.04499057 -0.14008585 0.07190043 -0.05957379
000340 3b 72 3b 3e a8 e2 30 3e b2 b7 5b 3e 64 de 2a 3d
       0.18305294 0.17273962 0.21456793 0.041715994
000350 c6 b1 a7 3c 06 c7 c8 3d 29 d4 2c 3e 3d 39 7b 3e
       0.020470511 0.09803586 0.16877808 0.24533553
000360 74 eb 6f 3e 06 d4 4f be 1b 84 0d bc bd 2a 0b 3e
       0.23429662 -0.20295724 -0.008637453 0.13590522
000370 8c c5 22 3e 22 d3 f1 3c 03 3d 30 be 13 a0 2c 3e
       0.1589567 0.029519621 -0.17210774 0.16857938
000380 a1 b5 5b 3d 5b 9a 61 3e 15 13 81 be ed b9 27 be
       0.05364001 0.22031538 -0.2520987 -0.16379519
000390 86 65 25 be 42 b5 68 3d a7 03 07 3e 95 16 95 be
       -0.1615201 0.056813486 0.13184987 -0.2911879
0003a0 4a 63 89 3c 62 fe 59 be 5b 50 9f 3e 1f df b3 3c
       0.016770978 -0.21288446 0.31115994 0.021956978
0003b0 d0 ab 61 3d ae 45 e0 bd b7 d5 82 be cd 54 31 3e
       0.055095494 -0.1095079 -0.25553676 0.17317505
0003c0 78 ee 9f be 75 50 a7 3d 09 df c1 bc d5 44 cc 3d
       -0.31236625 0.08169643 -0.023665922 0.09974066
0003d0 67 13 0b 3d 9c 25 0b 3e 0c 69 5a 3e 72 e0 1c be
       0.03395405 0.13588566 0.21329135 -0.15319994
0003e0 b2 04 19 3e 22 fa bd bd 68 68 0c 3e b0 a0 96 3c
       0.14943197 -0.09276225 0.13711703 0.018387169
0003f0 a2 16 87 be 4e 2e 63 be c6 e5 44 be d4 16 c8 bd
       -0.26384455 -0.22185633 -0.19228277 -0.09769979

layer1.0.bias f4 [16]
000000 fb 43 ad bd a8 9e 6c be 7a 56 52 be 4d 12 44 bd
       -0.08460232 -0.23107398 -0.205408 -0.047869015
000010 d5 b2 43 3e 38 ee 1f be 03 fc 08 3e 10 1f f0 bc
       0.19111188 -0.15618217 0.13377385 -0.029311687
000020 be 31 49 be ac dc 94 bd 3e 59 47 3d 93 0c 89 be
       -0.19647881 -0.07268652 0.048669092 -0.26767406
000030 d5 e3 65 3d 2e 54 e6 3c ce ed b0 bd 6f 35 14 be
       0.05612548 0.028116312 -0.08639108 -0.14473508

layer2.0.weight f4 [32, 16, 3, 3]
000000 8e dd 9c bd 37 6d 16 bd c3 56 67 bc 0b 9f d4 bd
       -0.07659446 -0.03672525 -0.014119807 -0.103818975
000010 63 a2 fc 3c 2b 12 01 3d 7f ea 95 bd 32 92 9f bd
       0.03083915 0.031511467 -0.07320117 -0.077915564
000020 4d e9 80 3d 24 33 f1 bd 68 46 44 bd 83 b0 25 be
       0.062944986 -0.117773324 -0.047918707 -0.16180615
000030 bc cb 17 bc 09 03 e2 3c 5c e1 09 be 5f 34 8f bb
       -0.009264883 0.027589338 -0.13464874 -0.004370257
000040 42 83 82 bd bf 0d 4e bc a9 2b 77 3e c3 c0 46 3d
       -0.06372692 -0.0125765195 0.24137749 0.048523676
000050 ad 0b 04 3e 5f 03 8b 3e 68 23 51 3e 64 39 3f 3e
       0.12895079 0.2715101 0.20423663 0.18674237
000060 0a 4a 57 3e af 33 06 3e 7e f1 1c 3e f5 07 01 3d
       0.21024337 0.13105653 0.15326497 0.03150173
000070 3a af 30 3d bd 4a 99 bc 73 91 42 3d 9a 46 fb 3b
       0.04313586 -0.018712396 0.047501992 0.0076683285
000080 71 12 48 3c b5 93 a7 3d a3 c8 c1 3d 21 fa ab 3c
       0.012211428 0.0818247 0.094620965 0.020993294
000090 4d 15 eb 3d 1d 24 07 3d c2 8a d8 bb c2 5c 93 bd
       0.11478672 0.032993425 -0.006608338 -0.071954265
0000a0 80 66 9a 3d bb 75 17 3d 28 ad 64 3d a2 39 14 3e
       0.075390816 0.03697751 0.055829197 0.1447511
0000b0 38 88 88 3d a9 8f aa bd 99 dd 2a bc 3f ab 85 3d
       0.06666607 -0.08328182 -0.01042881 0.06526803
0000c0 8d d5 c2 bc 0b 11 89 3c c6 29 21 3e 72 e3 26 bc
       -0.02378347 0.01673176 0.15738592 -0.010186063
0000d0 e1 64 ba 3d de ec 3c 3d f8 8d 08 3d 72 20 0c bd
       0.091012724 0.04612433 0.033338517 -0.03421063
0000e0 dc 6a b0 bd 4f 8b 50 bd a8 ff 2a bd e5 12 3b 3d
       -0.08614132 -0.050914105 -0.04174772 0.045672316
0000f0 3e 6c 5c bc a9 47 b5 bd 0c 3c 0f 3c 07 26 11 bd
       -0.013453541 -0.08851559 0.008742344 -0.035436656
000100 35 e0 ac bc 9b 56 ac 3c ac 4e 59 bc 1a fe a7 3d
       -0.021103004 0.02103739 -0.013263386 0.08202763
000110 15 d0 6d 3d 78 d2 59 3d 7c f5 2b ba 35 98 23 bc
       0.05805977 0.053179234 -0.00065597123 -0.009985019
000120 52 35 6b be 01 b4 42 be 57 74 3b be d8 29 60 be
       -0.22969559 -0.19013979 -0.18306099 -0.21890962
000130 4a e5 5d be b8 27 17 be 47 0e 13 be 5e 05 4f bd
       -0.21669498 -0.14761245 -0.14360915 -0.050542228
000140 cf a3 04 be e5 29 ab bd 8c d7 f6 bd 30 77 3d be
       -0.12953113 -0.083576 -0.12052831 -0.18502498
000150 8c 81 6c 3c fe 47 c5 bc d5 6b 12 be 37 45 ea bc
       0.014435183 -0.02408218 -0.14298947 -0.028597457
000160 51 07 6b bd a5 0d 0c 3d d3 ab ef 3d f4 32 a7 bb
       -0.057380024 0.0341927 0.11702695 -0.0051025096
000170 b3 47 81 3b 85 33 02 3e e8 0a b3 3d 6b c4 30 3e
       0.003945315 0.12714966 0.087423146 0.17262428
000180 16 67 2e 3e d0 36 ad 3d f1 a0 1a 3e fd 27 44 3e
       0.17031512 0.0845772 0.15100457 0.1915588
000190 e0 06 5f 3d f2 89 35 3e 8d 3b 44 3e 9f 4f e0 3c
       0.054449916 0.17728403 0.19163342 0.027381716
0001a0 33 d5 2f 3e 62 12 4c 3d ff 9e a2 3c db 3d 11 3d
       0.17171173 0.04982222 0.019851206 0.03545938
0001b0 7c 34 f2 bc 89 a9 31 be f8 ed c0 bd ad e6 94 bd
       -0.029566042 -0.17349829 -0.09420389 -0.072705604
0001c0 c8 1d 94 bd bc 9d c6 bb 30 53 31 be c9 22 34 bd
       -0.07232243 -0.006061284 -0.1731689 -0.043978486
0001d0 eb 64 0e 3c 87 5b c7 bd f6 e2 8f bd 86 b1 ed 3c
       0.008691053 -0.09734254 -0.07025711 0.029015314
0001e0 15 73 48 3d 37 d9 54 3d d4 e9 5e bd 4e c3 83 3d
       0.048937876 0.051964965 -0.054422215 0.06433736
0001f0 39 5e a1 bd db 84 69 3d 3e 38 55 bd d5 db 25 3d
       -0.078793 0.057011466 -0.05205559 0.04049285
000200 34 5a 02 bd 0d 5a 5e bd 2b e5 02 bb c1 54 e1 3c
       -0.031824306 -0.054285098 -0.001997302 0.027506234
000210 05 cd a7 3d fd 13 80 3d b8 19 0d 3d 5c 1d c7 bd
       0.08193401 0.062538125 0.034448355 -0.09722397
000220 9d 49 33 bc 7f e1 bb bd 3b db 69 bd 72 04 aa bd
       -0.010942844 -0.09173869 -0.05709384 -0.08301629
000230 dc c4 03 bd d9 67 78 bd b8 6a 1b 3d 1d 5a 3c bd
       -0.03217016 -0.06064591 0.03794357 -0.045984376
000240 75 86 65 bd 59 5f 20 3b 74 06 24 bd c4 92 c6 bd
       -0.05603643 0.0024470894 -0.040045217 -0.09695962
000250 b3 c9 dc bd b1 a3 43 bd 5d 34 6e 3d 2b 25 fd b9
       -0.107806586 -0.04776353 0.058155406 -0.00048283613
000260 14 ac 52 bc ce 83 7b bc 67 53 7c bd 61 4c 40 bd
       -0.012858409 -0.015351249 -0.061602976 -0.04694784
000270 31 f3 0e bc 54 9f 36 3d 4c 7d 87 3d 7d 11 80 3d
       -0.008724974 0.04458554 0.06615695 0.062533356
000280 32 c4 93 bd 9a 43 1c 3d c2 eb 28 3e b8 6d 64 3d
       -0.07215156 0.038150407 0.16496184 0.0557687
000290 97 2f db 3d 85 1f 0e 3e 86 88 8a 3d 5a c1 f1 3d
       0.107024364 0.13879211 0.06764321 0.11804457
0002a0 7a 7e 2b 3d 09 43 c9 bb 0b c4 e6 3b 55 e9 8f bd
       0.041868664 -0.0061420244 0.007042413 -0.070269264
0002b0 02 85 00 ba fe 3c e8 3c 07 96 52 3d 44 f6 d5 3c
       -0.0004902632 0.028349396 0.05141261 0.026118405
0002c0 85 1e e8 bc 35 ca 05 bd e3 ed b6 bd 3a 25 c7 bd
       -0.028334865 -0.032663543 -0.08932092 -0.09723897
0002d0 18 f8 9b 3d dd 8c 33 3d da 14 bc bd ed 5f a4 bd
       0.076156795 0.04383551 -0.091836646 -0.08026109
0002e0 46 90 99 3c 4e 9c dd bd 4a 1d 92 bb 17 79 c0 3d
       0.018745553 -0.108208284 -0.004459058 0.09398096
0002f0 7f 14 a9 3d 30 b8 9a 3d 9d e9 88 3c 18 c6 15 3d
       0.082558624 0.07554662 0.016712958 0.03656587
000300 43 c9 05 3e cd 1c 00 3e bd 6c 1c 3c 7a 5e bc bd
       0.13065057 0.12510987 0.00954741 -0.091977075
000310 71 6c 54 bd e8 06 de bd 1d 1d 4c bd a2 a7 ec bc
       -0.05186123 -0.10841161 -0.049832452 -0.028888527
000320 c2 bf 11 3d fe 05 91 bd d2 97 ee bc 9a f3 71 bd
       0.035583265 -0.07081221 -0.029125128 -0.059070207
000330 c5 45 96 bd c9 61 32 bd bd 69 a9 bd c8 6d 26 3e
       -0.07337526 -0.043550286 -0.08272121 0.16252816
000340 32 00 10 3e ce 5e 26 3e 08 d8 9d 3d 58 d2 94 3d
       0.14062575 0.16247103 0.0770722 0.072666824
000350 ca 96 11 3e 2e 72 0b 3e 4e 2d 9e 3d 59 e6 10 3e
       0.14217678 0.13617775 0.07723485 0.1415037
000360 a7 d9 0a be dd 76 1c be cd 3d 11 be 37 29 71 bd
       -0.1355959 -0.15279718 -0.14183731 -0.058877196
000370 c7 8b b7 bd e6 70 72 bc 57 12 46 be af 58 fa bd
       -0.08962207 -0.014797425 -0.19342934 -0.12223946
000380 28 95 a5 bd 44 cd f8 3c 32 7c 21 3d 68 7c e5 bc
       -0.0808509 0.030371316 0.039425083 -0.028013423
000390 61 d3 2b bd e3 34 68 3c e5 2c 4d bd 06 68 58 3b
       -0.041949634 0.014172765 -0.050091643 0.0033020987
0003a0 ed 4c 58 3d 73 c4 9a bd a8 9e a7 3c 4b e2 b6 3d
       0.052807737 -0.07557001 0.020461395 0.08929881
0003b0 ce 8f fd bb 40 1c e8 3d 5d 5e ec 3d d1 f0 04 3e
       -0.00773809 0.11333513 0.11541436 0.12982489
0003c0 b8 cb f6 3c 7a 0b fe bb 61 11 c7 3c 71 f7 42 3e
       0.030126438 -0.007752833 0.02430028 0.19039704
0003d0 f5 f6 42 3e 8b 58 2a 3e 08 6a 48 3e 39 02 84 3d
       0.19039519 0.16635339 0.19571698 0.064457364
0003e0 6d e3 97 3d 67 e1 3f 3e 80 57 9f 3d e6 53 e6 3d
       0.07416425 0.18738328 0.07780361 0.11246471
0003f0 b6 9b 3e bd d7 30 fc bd c4 4b 98 bc 4c 37 ba bd
       -0.046535216 -0.12314003 -0.018590815 -0.09092578

layer2.0.bias f4 [32]
000000 a7 1f 4b 3d 3d 63 98 3d ca d5 04 3d 79 60 f5 bc
       0.049590733 0.07440803 0.032430448 -0.029953228
000010 4e 13 1e be 54 92 07 be 9e 66 b6 bd da ec 53 3d
       -0.15437052 -0.13239413 -0.089062914 0.05173955
000020 38 a8 be 3d 53 13 21 bd ff ca de 3c b6 37 92 bd
       0.09309429 -0.03932507 0.027196405 -0.07139532
000030 4d 48 31 3d 93 ab 8f bc f2 10 20 be d0 69 b2 3d
       0.043281842 -0.017537868 -0.15631464 0.087115884
000040 b8 26 01 3d cd c9 b3 bd c7 1c 82 bd 9a 36 b6 bc
       0.031531066 -0.08778725 -0.06353145 -0.022242833
000050 08 68 8a bd dc be 31 3e fd 7e cb bc ab 54 47 be
       -0.06758124 0.17357963 -0.024840826 -0.19465892
000060 55 82 cf bd 21 34 13 be 8a 3f 28 be 1e 48 f3 bd
       -0.10132281 -0.14375354 -0.16430488 -0.1187899
000070 96 e3 00 be 6a d7 b9 bd d6 0f a8 bd 63 d8 46 bd
       -0.12586817 -0.0907429 -0.082061455 -0.048546206

layer3.0.weight f4 [64, 32, 3, 3]
000000 b0 c6 16 3b da a0 c6 bc aa e1 4f bd 96 be 9f 3c
       0.002300661 -0.024246622 -0.05075232 0.019500058
000010 4f 79 2a bd 63 d3 ab 3c 9a d5 3d bd be b3 db 3b
       -0.041619595 0.02097482 -0.046346284 0.0067047765
000020 a3 39 c7 bb 4b dd 88 bd 69 43 2a 3c 68 b6 3f 3d
       -0.006079869 -0.06682833 0.010392048 0.046804816
000030 7e d9 85 ba b4 03 2a bd 7c e6 52 bc 4a 10 28 3d
       -0.0010211912 -0.041507438 -0.012872335 0.04103116
000040 9d 42 0f 3d d9 57 46 3d f5 c7 8d bd d1 1b 27 3c
       0.034975637 0.04842362 -0.069229044 0.010199503
000050 c2 69 dd bc f1 ab 83 bd 2a 85 0f 3d 54 9c 84 3c
       -0.027027968 -0.064292796 0.035039105 0.016187824
000060 31 3c dd bc 76 55 92 bd 27 e8 af 3c 04 63 10 bd
       -0.02700624 -0.07145207 0.021473004 -0.03525068
000070 05 96 97 bd 7a 54 c1 3b 4b 38 9b bc e7 02 b2 bd
       -0.07401661 0.005899963 -0.018947741 -0.0869196
000080 8a d6 a3 bd b8 12 b5 bc 6b 87 7a bc db bf b2 bc
       -0.079999045 -0.022103652 -0.015291075 -0.02182
000090 e8 38 9f 3d 82 26 69 3c 52 c2 d8 3d 21 a3 69 3d
       0.07774526 0.014230372 0.10583939 0.057040337
0000a0 ea fd 2f 3c 09 07 da 3c cc 36 59 bb 5f 4a 9a bb
       0.01074169 0.026614683 -0.0033144234 -0.0047085728
0000b0 2a 6b 77 3c bb 73 90 3b 79 ae 5f ba b9 c1 70 3c
       0.0151012335 0.0044083274 -0.00085327734 0.014694625
0000c0 3d e8 2e 39 92 b2 f2 bc 65 04 4b bb 32 4a 39 3d
       0.00016680449 -0.029626165 -0.003097796 0.045236774
0000d0 31 28 8d bb bb 04 a8 bc 9f 03 bd 3d 79 0e 55 bb
       -0.0043077697 -0.020510068 0.09229206 -0.0032509847
0000e0 d1 d5 5c 3d e0 56 fa 3d 61 b4 16 3c 75 1a ae 3d
       0.05391485 0.12223601 0.009198279 0.0850114
0000f0 36 4c 7c 3c 0d a2 cb 3c 93 39 a3 bc 9f 8a 1c 3e
       0.0153990295 0.024857545 -0.019924914 0.15287255
000100 18 13 c4 3d 69 8b 31 3e 48 f6 2b 3e 8e 48 28 3e
       0.09573954 0.17338337 0.16793168 0.16433927
000110 19 08 e7 3d 71 65 0c 3e eb c9 c0 3d c5 4b 08 3e
       0.112808414 0.13710572 0.09413513 0.13310154
000120 6f 93 d4 39 56 b2 26 bd d6 57 57 bd 99 f6 1a bc
       0.00040545638 -0.04069742 -0.052574 -0.0094582075
000130 d3 78 87 bd 07 e1 cf 3b 84 cc 96 bc 0e a2 6b bd
       -0.06614842 0.006343964 -0.018408068 -0.057527594
000140 cc 96 1f 3d 24 d1 2f 3d e6 9e c9 3d 85 cb a9 bc
       0.03896217 0.04292406 0.098447606 -0.020726928
000150 07 4e 27 3e d9 47 16 3e db 1c f7 3d eb 73 a3 3d
       0.16338359 0.14675845 0.120660506 0.07981094
000160 b7 58 10 3e f7 ec aa 3d 53 ee 93 bc ea 84 4d bd
       0.14096342 0.08345979 -0.018057978 -0.050175585
000170 14 e8 bf bb e0 aa c6 3c 42 89 bb bb 8d 85 71 bd
       -0.0058565233 0.024251401 -0.0057231495 -0.058965255
000180 4f 6b 94 bd 22 ff de 3b c5 f6 c5 3c c6 1c a7 3d
       -0.0724703 0.0068053165 0.02416552 0.08159785
000190 27 6e 1b 3d 89 e1 41 bb 7e ba f4 bc cf 92 da 3c
       0.037946846 -0.0029583892 -0.029874083 0.026681332
0001a0 16 8f a3 3d 19 57 11 3d 71 09 3e bc 21 77 01 3d
       0.07986276 0.035483453 -0.011598931 0.03160775
0001b0 33 cc 52 be 8e eb 0e be 96 a9 07 be e8 cc 04 be
       -0.20585708 -0.13957044 -0.13248286 -0.1296879
0001c0 8d 4c 93 bd 25 cc 76 bd c4 13 26 be 22 95 0f be
       -0.07192335 -0.06025328 -0.16218477 -0.14021733
0001d0 b2 c1 7b bd 0f d7 0a 3e 09 f7 42 3d a2 60 79 3d
       -0.06146402 0.13558601 0.047598872 0.06088317
0001e0 9e 1a a2 3d 68 3a a7 3d 1b d0 d0 3d 19 55 d9 3d
       0.07915233 0.08165437 0.10195943 0.10611934
0001f0 c8 ea 91 3d 44 a5 5e 3d 39 32 0c bd 79 6d 4a 3d
       0.07124859 0.05435683 -0.034227584 0.049420808
000200 dd 88 8e bd f2 9d a8 3c df 72 ad 3b b1 54 07 bd
       -0.06959698 0.020583127 0.0052932347 -0.033039752
000210 72 8d 16 3c bb 9a ac 3c 64 37 9a bd b7 f5 bc bd
       0.009188997 0.021069875 -0.07530096 -0.09226554
000220 fd 68 00 be 3e 82 ff bd 8b eb 14 be e5 26 d2 bd
       -0.1254005 -0.124760136 -0.14542978 -0.10261325
000230 ec 78 07 be 3e 66 ff bd 1f c1 fc bd 41 a3 71 be
       -0.13229722 -0.12470673 -0.123415224 -0.23597433
000240 c5 51 83 3d ae b4 8f 3d 68 c4 c2 3c 91 69 f6 3d
       0.06412081 0.07016884 0.023775294 0.12031854
000250 9f 1d cc 3d d8 10 11 3e 7d 7f e2 3d 18 ad e0 3d
       0.09966587 0.14166582 0.11059473 0.10970515
000260 cc 24 71 3d f1 b5 64 3d 20 43 2e 3d ee dd d9 bc
       0.058872983 0.055837575 0.042544484 -0.026595082
000270 ea ae a4 3d 51 f3 01 3d 4f ba 18 3d 1c 91 21 3d
       0.08041175 0.031726185 0.037287053 0.039445028
000280 5d 8b 39 bd a7 e6 d9 3c 38 19 b4 3d 0d 70 e6 3d
       -0.045298923 0.026599241 0.087938726 0.11251841
000290 aa 1a a8 3d 88 0d b8 3d 71 80 96 3d 7c f7 cf 3d
       0.08208211 0.08986956 0.07348717 0.10154626
0002a0 ab 54 8a 3d 72 0d 87 3d a4 07 d9 3d 30 a5 e9 bd
       0.067544304 0.06594361 0.105971605 -0.1140846
0002b0 a5 67 ac bd cc 47 53 bc d6 71 f3 bc e9 c2 89 bd
       -0.08418206 -0.012895536 -0.029717367 -0.06726629
0002c0 28 47 a7 bd 79 a7 25 bd 35 a5 65 bd 4f 57 ec 3b
       -0.08167869 -0.040442917 -0.056065757 0.0072125564
0002d0 d0 e4 7a bd e2 48 04 bc f6 ce 05 3d 77 5a cc bc
       -0.06125337 -0.008074017 0.032668076 -0.02494548
0002e0 78 76 64 bb 10 4b 02 3d ea ea 88 38 25 dc 3e bd
       -0.0034860652 0.031809866 6.5287415e-05 -0.046596665
0002f0 70 79 fc bb b3 a5 3e be 91 e9 3e be 15 99 f7 bd
       -0.007704906 -0.18617897 -0.18643786 -0.12089745
000300 5a a5 f2 bd 2c 22 02 be 8f cd e4 bd e1 26 86 bd
       -0.118479446 -0.12708348 -0.1117202 -0.06550384
000310 b9 7e da 3a 27 d9 b7 bb 5d 96 39 bd 95 56 e3 bc
       0.0016669846 -0.0056106034 -0.045309413 -0.027751246
000320 1f 25 bb 3b 79 7d 87 bc 81 c4 45 bd 6a 4f 82 bd
       0.0057112123 -0.016539322 -0.048283104 -0.06362803
000330 db 7c a8 bd 39 9d 8a bd cc 63 7b bd ce 3c 46 bd
       -0.08226939 -0.06768269 -0.06137447 -0.04839783
000340 73 e5 13 bd 1e 52 a5 b9 a5 fa e6 bc e8 69 23 bd
       -0.03610749 -0.00031532435 -0.028195689 -0.039895922
000350 ed 26 75 3d 2e 4a d9 bb 4d 67 15 3d b4 fc 32 bd
       0.059851576 -0.0066311574 0.03647547 -0.043698028
000360 d4 6f ef 3d 56 b9 1a 3d 7c be 87 3d e8 20 0f 3e
       0.116912514 0.037774406 0.06628129 0.13977396
000370 98 57 01 3e 84 90 08 3e 61 ae 9e 3d 9b 54 7d 3d
       0.1263107 0.13336378 0.07748104 0.061848264
000380 3b 15 a3 3d b2 fd e5 3d 88 76 53 3d de 65 ea 3d
       0.07963034 0.11230029 0.051626712 0.11445211
000390 a8 3d 97 3d 97 6a ce 3d 33 ee a8 3d df 49 ca 3d
       0.07384807 0.10078924 0.08248558 0.09877371
0003a0 7a b5 10 3d 60 e0 ad 3d 81 ef 88 3d d1 fa 63 bd
       0.03532932 0.08490062 0.06686307 -0.05565912
0003b0 c3 cc 12 bd 68 60 8b 3c 96 8f d5 3c ae 72 b4 3c
       -0.035839807 0.017013744 0.026069444 0.02202734
0003c0 da 60 bf bc 7a c7 02 3d 97 be 9f 3c 6f c7 76 3d
       -0.023361612 0.031928517 0.01950006 0.06024879
0003d0 e1 1b 86 3d 6b 36 81 bc 27 05 95 3d 19 81 56 3d
       0.06548286 -0.015773019 0.07276373 0.05236921
0003e0 8b 19 56 3d 53 95 3c 3b 8c 81 69 bd 63 44 39 3d
       0.052270453 0.0028775528 -0.05700831 0.045231234
0003f0 9f 2e 9d 3d a9 bf e5 3d 9c b5 14 3e 9a 17 c8 3d
       0.07674908 0.11218197 0.14522403 0.09770127

layer3.0.bias f4 [64]
000000 92 41 ab bc 74 32 20 3e 60 a5 05 be 49 4f 17 3b
       -0.02090529 0.15644246 -0.13051367 0.002308803
000010 b9 50 2c bc 86 ac 85 3d 05 14 86 bd 0e b8 95 bd
       -0.010517293 0.06527047 -0.06546787 -0.07310496
000020 6c c3 19 3d 0a 93 f1 bc 5b a9 cb 3d 85 b4 db bc
       0.037539884 -0.029489059 0.09944411 -0.026819477
000030 a1 a9 8c bd 60 bb 37 3c ef 3a 1e 3d c7 ff 33 3c
       -0.06868292 0.011214107 0.038630422 0.010986275
000040 89 40 42 3d a2 f8 80 3d ff 5d 4c 3c 31 2a 82 3b
       0.047424827 0.06297423 0.012473582 0.0039723148
000050 17 fe 57 3d 5b 5f 2b bd 49 59 82 bd a2 f2 8b 3d
       0.052732553 -0.041838985 -0.06364686 0.06833388
000060 b1 dc 29 bd 41 5b 6c bd 79 ea 57 3c cd f6 ac bd
       -0.041470233 -0.057704214 0.013178461 -0.08445511
000070 b6 99 4a 3d bf 2b d4 bd c0 0e 78 bc 32 8b 53 3e
       0.049462996 -0.103599064 -0.015140235 0.20658568
000080 02 3e 8a 3c 58 5d 48 bd 07 69 8b bd a6 fc 05 3e
       0.01687527 -0.048917145 -0.06807142 0.13084659
000090 40 0b e9 bd 5a 8f b8 3c ec 18 12 be 7a c6 00 bc
       -0.11379099 0.022529293 -0.1426732 -0.0078598205
0000a0 60 f3 ca 3d 1e ec 11 3e e2 30 b4 3b e3 b7 c4 3b
       0.09909701 0.14250228 0.0054989913 0.0060033663
0000b0 b8 84 fa bd e0 34 06 3d 2e 9d 58 3c 49 99 1c bd
       -0.12232345 0.03276527 0.013221068 -0.03823212
0000c0 5e 9e af 3d 57 84 43 bc bf 8d 29 bd 4c f8 a3 3d
       0.08575128 -0.011933408 -0.041394945 0.08006343
0000d0 3d ff 5f 3b 58 70 a7 bc 04 72 09 bd cd 7e 89 bc
       0.0034179233 -0.020439312 -0.033556 -0.016784096
0000e0 e1 26 c1 bd 59 4f f3 3d f7 c0 87 3d 6c 66 1e bd
       -0.09431244 0.11880369 0.06628602 -0.038671896
0000f0 79 e6 af 3a bf 75 7b bd 0a a1 f4 3d cb e4 ec bd
       0.0013420127 -0.06139159 0.11944778 -0.11567076

fc.weight f4 [4, 64]
000000 10 5f d4 bd 5b cf 64 bd bf 1c a6 3d 90 50 7a 3d
       -0.10369694 -0.055861812 0.08110952 0.061111987
000010 c5 a8 02 be 3b 3a 19 3e 55 94 0d be ed 64 40 3e
       -0.12759693 0.1496362 -0.13826115 0.187885
000020 8f 24 26 3e 6f 78 8a bd ea 38 b1 be bb 1c 3f 3d
       0.16224883 -0.06761252 -0.34613734 0.04665826
000030 08 bc 0c 3e b1 97 2e bf f8 37 ba be df 72 cc bd
       0.13743603 -0.6820021 -0.36370826 -0.099828474
000040 da f6 d0 be d9 24 53 be f2 39 8e 3c 71 a7 61 be
       -0.40813333 -0.20619525 0.017361615 -0.2203653
000050 cf 8d 6e be 1b 1d a0 3c b7 38 fd bd e6 1f 10 3e
       -0.23296283 0.019545129 -0.12364333 0.14074668
000060 79 b6 f7 bd 38 e7 eb 3d 95 88 96 be f0 17 28 be
       -0.12095351 0.11518711 -0.2940108 -0.16415381
000070 77 5f 1a be ff ca 30 3e ab c9 46 3e b8 0c b6 bc
       -0.1507548 0.17264937 0.19412868 -0.022222862
000080 e2 77 90 be ec 02 ef 3e 42 a7 10 3d 01 bc 15 bd
       -0.28216463 0.46681917 0.03531576 -0.036556248
000090 be ca 03 3e 38 bf d4 be 59 58 cd 3c 47 ad 48 3d
       0.12870309 -0.41552138 0.025066542 0.048993375
0000a0 12 93 2c bc 03 9f 8f be fd 9a 7e be ad 1a 76 be
       -0.010533111 -0.28051004 -0.24863811 -0.24033614
0000b0 5c 9e 4c be 02 3f 08 3e 66 3d dc be 11 c0 ec 3d
       -0.19982284 0.13305286 -0.43015593 0.11560071
0000c0 08 ad 88 bc ff 8a af be 89 53 d9 3d 64 b4 35 bd
       -0.01668407 -0.34285733 0.10611636 -0.044361487
0000d0 41 c9 be bd df e0 92 3c d2 9c 05 3e 34 f1 28 3e
       -0.0931573 0.017929493 0.13048103 0.16498262
0000e0 c1 6e 8b be a9 5f bb 3d 5c 26 13 3e a5 3e 96 bd
       -0.27232936 0.09149105 0.14370102 -0.07336167
0000f0 0b 94 75 bc 89 72 43 3e 92 b6 d1 3d c8 66 2a 3e
       -0.0149889095 0.1908666 0.10239901 0.1664077
000100 d1 fb 9b 3d 7f 18 a0 be a9 a9 a1 3d 1a cc e6 bd
       0.076163895 -0.3126869 0.07893688 -0.11269398
000110 6c e6 ac bd 07 d3 07 bd 16 3e b6 3d 84 1d 18 3e
       -0.08442387 -0.033160236 0.08898561 0.1485501
000120 74 98 e0 bd b9 2c 17 3e 1d f2 6c bd 16 4e 94 bd
       -0.10966578 0.14763154 -0.057848085 -0.07241456
000130 a9 b5 17 bd e2 83 cf 3e 8c ae b5 3e ec d6 1a be
       -0.03703848 0.40530306 0.3548473 -0.15121049
000140 6a a2 ae 3e c4 a7 81 3e 45 c7 01 be 0f f9 1a 3d
       0.34108287 0.25323308 -0.12673672 0.037835177
000150 36 97 1a 3e fe fb 0b 3e 38 23 a7 3d 9c 64 9f bd
       0.15096745 0.13670346 0.08161014 -0.077828616
000160 26 10 04 3e f9 9b 59 3c 21 87 c4 3e 83 ad c9 3d
       0.12896785 0.013281816 0.38384345 0.09847548
000170 2b 2b 18 be ec a8 a5 3d 99 e3 a4 be 58 bd c0 be
       -0.14860217 0.0808886 -0.32204893 -0.37644458
000180 3e 09 53 3e 77 f4 10 be c8 74 0e 3f 94 97 e0 3e
       0.20608994 -0.14155756 0.55646944 0.43865645
000190 bf 7d 98 3d 37 a8 0e 3e 29 8a 1e 3d 91 85 72 bd
       0.07445859 0.13931356 0.03870598 -0.05920941
0001a0 63 a3 c1 3e 74 dc a2 be 3e 56 f0 3c 7d f5 c6 bd
       0.37819967 -0.31808817 0.029337998 -0.09714792
0001b0 4b 64 0b bd 6e 29 24 be b7 ef ed 3e 32 47 ca bd
       -0.034031194 -0.16031429 0.4647195 -0.09876861
0001c0 5b c5 e9 bc 29 9d d8 3e dd 9b 16 bc 43 4f 22 be
       -0.02853649 0.42307404 -0.009192434 -0.15850548
0001d0 68 86 93 3e c4 bc 3d be 72 a9 71 bd 8a 69 9c bd
       0.2881348 -0.1852904 -0.058999486 -0.076373175
0001e0 ad ba 12 3f f9 c7 5d be 13 3c 3f 3e 81 5f 9d bd
       0.57316095 -0.21658315 0.1867526 -0.076842315
0001f0 d0 5c 73 3d e7 34 33 3c da eb 08 bf e5 6f 4a bc
       0.059414685 0.010937906 -0.5348488 -0.012355779
000200 97 5c 20 3e 56 d8 21 bd ed 59 a5 3d 8e e7 01 3e
       0.1566032 -0.039512955 0.080737926 0.12685987
000210 34 06 8e 3e 3e 0b 21 be ef 6b 1b 3e a5 e2 8d 3d
       0.27739108 -0.15726945 0.15177892 0.06927995
000220 20 2b f1 bd 05 5a 21 3e a9 5e 18 3e 18 d0 25 3d
       -0.117758036 0.15756996 0.1487986 0.040481657
000230 16 25 9f bd 74 04 cf 3d 4e 8b be bd 98 13 1b 3e
       -0.077707455 0.10108271 -0.09303914 0.15144193
000240 01 b0 c4 3c 0d c6 9f bd ee f8 0c 3e af 94 4f 3e
       0.024009706 -0.07801447 0.13766834 0.20271562
000250 b5 b7 11 3d 12 bb 3d 3d 75 84 17 bc 34 40 0e 3e
       0.035575587 0.046320982 -0.009247889 0.13891679
000260 eb 13 c7 3d bd 37 dd bc 0e 46 1e be de 23 0d 3e
       0.09720596 -0.027004117 -0.15456411 0.13783213
000270 e7 ad 06 3e 61 3e a3 3d 60 5c a6 bd 25 bb db bd
       0.13152276 0.07970882 -0.08123088 -0.10729054
000280 a4 b5 06 3c 0b e6 bb be 73 ae b8 be f2 c8 9d be
       0.008222017 -0.36698946 -0.36070594 -0.30817372
000290 02 ca df 3d 76 6b 92 3e b7 68 b5 3d b8 50 0e be
       0.10927202 0.2859761 0.088578634 -0.1389798
0002a0 70 a4 6d be 44 6a a3 3d 07 f5 6c 3e 87 b9 56 3e
       -0.23207259 0.07979253 0.23140346 0.2096921
0002b0 4b 59 b9 3d ae 98 c5 3d 31 2c c8 bc 9b b2 03 be
       0.090502344 0.09648262 -0.024435135 -0.12861101
0002c0 ce 88 8c bd 97 c2 05 be a9 e4 48 bd a0 dd 02 3d
       -0.06862031 -0.13062511 -0.049046192 0.03194964
0002d0 42 23 79 be 4f 98 41 bd 4f b0 13 3e 1e f3 85 3d
       -0.24329856 -0.047264393 0.14422725 0.065405115
0002e0 81 f7 6d bd a7 8d b8 bc 81 af c5 be 34 2a c5 3d
       -0.058097366 -0.022528483 -0.3861046 0.0962719
0002f0 5d 16 3e 3e fe 38 9a bc 43 c8 14 3e 75 b5 7f 3d
       0.18563218 -0.018826004 0.14529519 0.06242891
000300 c3 c8 70 be 69 3a 8a 3e c2 6b 53 be 7c f3 36 bd
       -0.23514085 0.26997688 -0.20646575 -0.0446658
000310 66 2d 08 bc d9 43 2f 3c fb 4b 66 be 84 69 88 be
       -0.008311605 0.0106973285 -0.22489922 -0.26643002
000320 65 f1 e5 bd c7 f8 ef bd 61 00 78 3e 4f 02 5e 3e
       -0.11227683 -0.117173724 0.24218895 0.21680568
000330 e7 f1 f8 bd 96 a8 dc 3d b8 22 a2 bd 3d 85 1a 3e
       -0.12155514 0.10774343 -0.07916778 0.15089889
000340 24 54 66 bc 19 b0 68 3e 49 fa 14 be bc 65 f4 bd
       -0.014058147 0.22723426 -0.14548601 -0.11933467
000350 dc 3f 81 be b8 a3 48 be a4 cd 08 3e 36 da 59 3d
       -0.25244033 -0.19593704 0.13359696 0.053186618
000360 13 cf 4e be 1a 11 31 be 8b 49 27 be 34 d1 59 be
       -0.2019618 -0.1729168 -0.16336648 -0.21271211
000370 58 56 76 3e 64 37 87 be 09 ed 0a 3d a9 27 ae 3e
       0.24056375 -0.26409447 0.03391746 0.34014633
000380 ea 69 f9 bc 7d 87 47 3c a4 47 78 be e0 e6 a2 bc
       -0.030446012 0.012178299 -0.24246079 -0.01988548
000390 e1 3b 18 be 0d 01 7d 3e e7 00 a1 be cc 4f 44 be
       -0.14866592 0.24707432 -0.31446 -0.19171065
0003a0 a2 f5 54 bd 6e 58 9a 3e 9a dd 92 bd 60 97 cd bd
       -0.051992066 0.30145591 -0.071711734 -0.10038638
0003b0 52 b8 81 be bd e4 cc 3c 23 23 0e bd 9c f5 1d be
       -0.25335938 0.025011415 -0.034701478 -0.15425724
0003c0 81 15 cb 3d fe 57 ce bd b1 6b 8e be d2 e0 06 3e
       0.09916211 -0.10075377 -0.27816537 0.131717
0003d0 ad 7a 41 bb 17 ce 8c be 23 47 75 bd 84 96 d1 bc
       -0.0029522583 -0.27500984 -0.059882294 -0.025584467
0003e0 06 c8 f4 bd 54 c1 e3 3d ff 41 8f 3c 74 d8 5c be
       -0.11952214 0.11120859 0.017487524 -0.21566945
0003f0 d9 f1 72 3d e7 d7 2b be e5 4d a6 3e 55 d9 80 be
       0.059312675 -0.16781579 0.32481304 -0.2516581

fc.bias f4 [4]
000000 d1 07 9e 3d 87 04 c5 bd a6 c4 ca 3d 3b 98 a2 3d
       0.077163346 -0.09620004 0.09900789 0.07939192
