Models/Task2/modelo_treinado_CNNModel2D_10_epochs.pth (torch, 100316 bytes, 8 tensors)

layer1.0.weight f4 [16, 3, 3, 3]
0	0xbe0bda65	-0.1365753
1	0x3dbde99e	0.092730746
2	0xbd6989e4	-0.05701627
3	0x3d8fd126	0.07022314
4	0x3b1f9f17	0.00243563
5	0xbde60849	-0.11232049
6	0x3e19adf6	0.15007767
7	0xbdc24d92	-0.094874516
8	0xbe29f009	-0.16595472
9	0x3de8bbe3	0.113639615
10	0x3e3f4df3	0.18682079
11	0x3dbaeec2	0.09127571
12	0x3dd828ba	0.10554643
13	0x3eb84c7d	0.35995856
14	0xbda11a42	-0.078663364
15	0x3e8879f1	0.26655534
16	0x3de6f90a	0.11277969
17	0x3e4c3cf6	0.1994513
18	0xbde62624	-0.112377435
19	0x3c832f68	0.016013816
20	0xbe1c5202	-0.15265658
21	0xbe5ddb2a	-0.21665636
22	0xbe279198	-0.16364133
23	0xbedad6df	-0.4274206
24	0xbddfc5ad	-0.109263755
25	0x3d6f4c4c	0.05842237
26	0xbe2e4fa1	-0.17022564
27	0xbdd4872c	-0.103773445
28	0xbe48c236	-0.19605336
29	0xbb3e6434	-0.0029051425
30	0x3bbc257d	0.0057417736
31	0x3dde4781	0.10853482
32	0xbe7eafd7	-0.24871765
33	0xbdd0155a	-0.101603225
34	0x3e4e9842	0.20175269
35	0x3dff1a03	0.12456133
36	0x3da0cf1f	0.07852005
37	0xbd826c85	-0.06368355
38	0xbdf87ec9	-0.12133557
39	0xbc851a4b	-0.016247889
40	0xbd37d06e	-0.04487651
41	0xbe8a6e13	-0.27037105
42	0xbd1428bb	-0.036171656
43	0xbd90aa04	-0.07063678
44	0x3e39dedd	0.18151422
45	0x3da07402	0.07834627
46	0xbd991dda	-0.07476397
47	0x3e584a4f	0.21122096
48	0xbd109e4e	-0.03530722
49	0xbc694ad8	-0.014239036
50	0xbe65dbef	-0.2244718
51	0x3e1c2d81	0.15251733
52	0x3e7bfada	0.24607411
53	0x3ea0ad37	0.31382152
54	0xbe177cfc	-0.14793772
55	0xbe031cc5	-0.12803943
56	0xbe166cfb	-0.1469001
57	0xbc6af1c4	-0.014339868
58	0xbe2933ed	-0.16523714
59	0xbd92dade	-0.07170652
60	0xbe1e4809	-0.15457167
61	0xbe0bb041	-0.13641454
62	0xbd00b571	-0.031423036
63	0x3d5871a0	0.052842736
64	0xbe0133e3	-0.1261745
65	0x3ba9dafb	0.005183575
66	0xbddf40ff	-0.10901069
67	0xbdc05030	-0.093902946
68	0xbdc14207	-0.09436422
69	0xbe17cf08	-0.1482507
70	0xbe81c9ab	-0.25349173
71	0x3a8d1dbf	0.0010766311
72	0x3e3fec3f	0.18742464
73	0xbe50876f	-0.20364164
74	0x3d852d22	0.06502749
75	0x3e8df2d1	0.27724317
76	0xbd9f11c9	-0.07767064
77	0x3d4cf147	0.050034788
78	0x3dc165da	0.09443255
79	0x3dba07a6	0.0908349
80	0xbe576961	-0.21036293
81	0x3dcd630c	0.10028657
82	0x3e6d74ef	0.23189138
83	0x3d89cad5	0.0672814
84	0x3df8fbe0	0.12157416
85	0x3d72f099	0.059311483
86	0xba95a34d	-0.0011416465
87	0xbe2d4d02	-0.16923907
88	0x3e0879b5	0.13327678
89	0x3e3a028f	0.18165039
90	0xbdfbdcfb	-0.12298008
91	0xbe3d2678	-0.18471706
92	0xbd75b9e5	-0.059991736
93	0x3dd21c32	0.10259284
94	0xbe6a82fd	-0.2290153
95	0xbe09885a	-0.1343092
96	0xbe5687cd	-0.20950241
97	0xbda8b3fc	-0.08237454
98	0xbdd7ddcb	-0.105403505
99	0xbdebb64e	-0.11509381
100	0x3d8ac357	0.06775539
101	0x3d93eb94	0.07222667
102	0x3e70def3	0.23522548
103	0x3d7c582e	0.061607532
104	0x3cc28a5c	0.023747616
105	0xbdfd68d0	-0.12373507
106	0x3d0eae91	0.03483445
107	0x3d607145	0.054795522
108	0x3dbbaf30	0.09164274
109	0xbca23e98	-0.019805238
110	0x3dba3ced	0.09093652
111	0x3da2144d	0.07914028
112	0xbd6cd555	-0.057820637
113	0x3e4fa2fb	0.20277016
114	0x3e1ed9f1	0.15512826
115	0x3e192867	0.14956819
116	0x3e36c8a8	0.17849982
117	0x3dea978b	0.11454686
118	0x3da30453	0.07959809
119	0x3e5b8202	0.21436313
120	0xbdcc2342	-0.099676624
121	0x3e669eaa	0.22521463
122	0x3e5717e9	0.21005215
123	0x3dc4c95a	0.09608717
124	0xbe0cac0c	-0.13737506
125	0x3d35c216	0.044374548
126	0xbe05421b	-0.13013498
127	0xbe654701	-0.22390367
128	0x3c8f28f3	0.01747558
129	0x3dd54115	0.10412804
130	0xbe48a001	-0.19592287
131	0xbdf289c6	-0.118426844
132	0x3d682912	0.056679793
133	0x3c9f565b	0.019450357
134	0x3de73b2c	0.11290583
135	0xbdab00e6	-0.08349781
136	0xbe816d3f	-0.2527866
137	0xbe2831cf	-0.1642525
138	0xbe250db6	-0.16118512
139	0xbdae11f7	-0.0849952
140	0xbe5a69a3	-0.2132936
141	0xbe0ef3bb	-0.13960163
142	0xbce27875	-0.027645329
143	0xbe5fd46e	-0.21858379
144	0x3c4f5c38	0.012656264
145	0xbe085a84	-0.13315779
146	0x3e807a94	0.2509352
147	0x3d9a1f0d	0.07525454
148	0x3d39c37c	0.045352444
149	0xbdbd8a47	-0.0925489
150	0xbb0297bd	-0.001992687
151	0xbe41a839	-0.18911828
152	0x3def669d	0.11689494
153	0x3e1e1a42	0.15439704
154	0x3e1d3df1	0.1535566
155	0x3eb92b01	0.36165622
156	0x3d9268d3	0.071489
157	0x3dd2c1fe	0.10290907
158	0x3e88a64b	0.2668937
159	0x3e64c392	0.22340229
160	0x3de3db72	0.1112584
161	0x3e2812b1	0.1641338
162	0x3e3602ac	0.17774457
163	0x3e821a57	0.2541072
164	0x3d167e10	0.036741316
165	0x3e3d9746	0.18514737
166	0x3e0c9a31	0.13730694
167	0x3dcdcf84	0.10049346
168	0x3c92ef4a	0.017936368
169	0x3e54564b	0.20736043
170	0x3e11e6d8	0.14248216
171	0x3d853aa9	0.06505329
172	0x3ce3b831	0.02779779
173	0x3e3e9d4e	0.18614694
174	0x3de7e490	0.11322892
175	0xbce801b6	-0.028321128
176	0x3e34bcc8	0.1765014
177	0x3db39977	0.087695055
178	0x3e78a6c0	0.2428236
179	0xbdcf2ccf	-0.101159684
180	0xbe40cff5	-0.1882933
181	0xbe1dce48	-0.15410721
182	0xbdd4ea6c	-0.10396275
183	0xbd091774	-0.033469632
184	0xbe4455a8	-0.191733
185	0xbd85c0fc	-0.065309495
186	0x3c88a3e7	0.016679717
187	0x3da0c2d0	0.078496575
188	0x3c9174ac	0.017755829
189	0x3e0f6b13	0.1400569
190	0x3d2fc07d	0.04290818
191	0x3e31e1e3	0.17371325
192	0xbda42bd0	-0.08016169
193	0x3e4f8ad2	0.202678
194	0x3b7e8015	0.0038833667
195	0x3d98eb84	0.07466796
196	0x3ddadfc7	0.106872134
197	0x3dd2e28b	0.10297116
198	0xbde5b3f5	-0.11215965
199	0x3da770d4	0.08175817
200	0xbe131848	-0.14364731
201	0x3e0e3baa	0.13889948
202	0xbe059897	-0.1304649
203	0x3ac19c77	0.0014771362
204	0xbe44a612	-0.19203976
205	0xbd75c5d9	-0.060003135
206	0x3c77e3a4	0.015129957
207	0xbe04045a	-0.12892285
208	0xbe1c9c69	-0.1529404
209	0xbdfe4f63	-0.124174856
210	0x3dedb0fe	0.11606024
211	0xbe305049	-0.17218126
212	0xbddd242c	-0.10797915
213	0x3de9a87d	0.1140909
214	0xbe490d24	-0.19633919
215	0xbe5f31af	-0.21796297
216	0x3e4856c0	0.19564342
217	0x3b158dc6	0.00228201
218	0x3e9dc221	0.3081217
219	0x3bbc0564	0.0057379473
220	0xbdb3e7e6	-0.087844655
221	0xbe0f7656	-0.14009985
222	0x3e69524b	0.22785299
223	0x3d195dbd	0.03744291
224	0x3e211257	0.15729652
225	0xbe13d530	-0.14436793
226	0x3ddb8beb	0.107200466
227	0xbcf5a65e	-0.029986557
228	0xbe4b626b	-0.19861762
229	0xbe61357d	-0.2199306
230	0xbe353918	-0.17697561
231	0xbe33075b	-0.17483275
232	0x3e50b2c5	0.20380695
233	0x3c7ea388	0.015541919
234	0xbc961aa8	-0.018323258
235	0x3e0163e9	0.12635769
236	0x3cc6d6c8	0.024272338
237	0xbdbffd42	-0.09374477
238	0xbe050511	-0.12990214
239	0xbd9ff2f6	-0.07810013
240	0x3be3ce86	0.0069521097
241	0xbe09a83a	-0.1344308
242	0xbdfaa451	-0.12238372
243	0x3c589509	0.0132191265
244	0x3e27bbbc	0.16380209
245	0x3e3f25b5	0.18666728
246	0xbdf210b6	-0.118195936
247	0xbd850711	-0.064954884
248	0x3e049e60	0.1295104
249	0xbd971059	-0.07376165
250	0x3e2789c0	0.16361141
251	0xbd3c0185	-0.045899887
252	0x3c80b8b2	0.01571307
253	0x3bce3ecc	0.006294107
254	0xbe54e9c3	-0.20792298
255	0x3db34ec2	0.08755256

layer1.0.bias f4 [16]
0	0x3d6fd67c	0.058554158
1	0xbe97b7f2	-0.29632527
2	0xbe8d5a4b	-0.2760795
3	0x3e4390f6	0.19098267
4	0x3e243dc6	0.1603919
5	0x3e2eea2e	0.1708152
6	0x3e1b8b6c	0.15189904
7	0xbe165b03	-0.14683156
8	0xbe29d35f	-0.16584538
9	0x3d7c8817	0.061653223
10	0x3e4210a9	0.18951668
11	0xbc9f0fec	-0.019416772
12	0x3e262ad7	0.1622728
13	0xbe31ce13	-0.17363767
14	0xbe54df1d	-0.20788236
15	0xbe83aff1	-0.2572017

layer2.0.weight f4 [32, 16, 3, 3]
0	0xbd05ba72	-0.03264851
1	0x3d3e07a0	0.04639399
2	0x3cd2b221	0.025719704
3	0x3e09fcdc	0.13475364
4	0x3e090419	0.1338047
5	0x3d21e282	0.039522655
6	0x3d99c3fa	0.07508083
7	0x3df6de17	0.12054079
8	0x3a2f4027	0.00066852797
9	0xbda3dc59	-0.08001012
10	0x3cdffa90	0.027341157
11	0xbbb1e01b	-0.005428327
12	0x3dc3907a	0.09549041
13	0x3d72ba3f	0.05925965
14	0xbcb8101c	-0.022468619
15	0x3e002ad6	0.1251634
16	0x3da55a4f	0.080738656
17	0x3dc761f7	0.09735482
18	0xbda65973	-0.0812253
19	0xbdcc6949	-0.09981019
20	0xbc892cca	-0.01674499
21	0xbe014acc	-0.12626189
22	0xbd874a8a	-0.06606014
23	0xbdd37288	-0.103245795
24	0xbe10f397	-0.14155422
25	0xbd0936c8	-0.03349951
26	0xbd9544bf	-0.07288503
27	0x3ddebb2c	0.10875544
28	0xbc9d96aa	-0.019236881
29	0x3de91781	0.11381436
30	0xbdbc5ab4	-0.09196988
31	0x3d9e7d9c	0.07738802
32	0x3ddc7e67	0.10766297
33	0x3d8f88d5	0.070085205
34	0xbc84447b	-0.016145935
35	0x3d82d9b8	0.06389183
36	0x3d0f4a04	0.034982696
37	0x3a92c369	0.0011197153
38	0xbd34f314	-0.04417713
39	0x3b9ad786	0.0047253994
40	0xbe0e7744	-0.13912684
41	0xbdf1367e	-0.11777972
42	0xbd04bac5	-0.03240468
43	0xbd8bd0cf	-0.068269365
44	0xbd8ad2fb	-0.067785226
45	0xbb21e550	-0.0024703331
46	0x3d04d228	0.032426983
47	0xbd0ef489	-0.034901176
48	0x3cb4ef20	0.02208668
49	0xbd1d3e74	-0.038389638
50	0x3d3a0de1	0.045423392
51	0x3d9bc2cb	0.07605513
52	0x3cec0cb8	0.028814659
53	0xbd1972d2	-0.037463017
54	0xbcc54119	-0.024078893
55	0x3c1a3a7f	0.009413361
56	0x3c826f28	0.015922144
57	0xbd607616	-0.054800116
58	0xbdff3bde	-0.12462591
59	0xbc5bd1ba	-0.013416702
60	0x3d501c84	0.050808445
61	0xbd507355	-0.05089124
62	0xbcf682cf	-0.030091671
63	0xbcaf0ee1	-0.0213694
64	0xbb1a618c	-0.0023556678
65	0x3da021f7	0.07818978
66	0x3d176d42	0.03696943
67	0x3db2447c	0.087044686
68	0x3d287570	0.041127622
69	0x3d9e745b	0.07737037
70	0x3d993005	0.07479862
71	0x3b24fd68	0.0025175456
72	0xbd4a6631	-0.049413864
73	0x3d70c313	0.058779787
74	0xbd58d5ab	-0.052938145
75	0x3d502fae	0.05082672
76	0x3dffff54	0.12499872
77	0x3dd6581b	0.104660235
78	0x3d8457a0	0.06462026
79	0xbca4a6be	-0.02009904
80	0xbc8f436c	-0.017488204
81	0xbd0e3325	-0.034716744
82	0x3e102bf3	0.14079265
83	0x3d2cc19b	0.042176824
84	0x3dcaec7a	0.099083856
85	0x3d666045	0.056244154
86	0x3d8308f9	0.06398196
87	0x3d9a7931	0.07542647
88	0x3a5523c7	0.00081306364
89	0xbcf021b2	-0.029312942
90	0xbcb10aac	-0.021611534
91	0xbd9a635b	-0.07538482
92	0xbd6d141e	-0.057880513
93	0xbdcb2f54	-0.099211365
94	0x3be2cb29	0.0069211912
95	0x3d41e865	0.04734077
96	0x3ce786de	0.028262552
97	0xbd0d3406	-0.03447344
98	0xbaa49323	-0.0012556057
99	0xbcc1e1e7	-0.023667289
100	0xbdc76908	-0.0973683
101	0x3d111f5d	0.0354303
102	0x3d833e86	0.0640841
103	0x3c964b19	0.018346356
104	0x3d87d7de	0.0663297
105	0xbd54e60d	-0.051977206
106	0x3d98a737	0.07453769
107	0x3d2efbf2	0.042720743
108	0xbcb3e957	-0.021961851
109	0xbcb1c202	-0.021698955
110	0xbd2f69a5	-0.04282536
111	0xbd849cc3	-0.064752124
112	0x3d9bd42c	0.07608828
113	0xbce79fd3	-0.028274452
114	0xbbc18372	-0.005905562
115	0xbd99426c	-0.07483372
116	0xbdd02f02	-0.10165216
117	0xbda708e6	-0.08155994
118	0xbda5afa8	-0.080901444
119	0xbd350a47	-0.044199254
120	0x3d73fecd	0.05956917
121	0xbe0e6a2d	-0.1390769
122	0x3d152559	0.03641257
123	0xbd624397	-0.05524024
124	0xbe173b48	-0.14768708
125	0xbe078d55	-0.13237508
126	0x3e04760a	0.12935653
127	0x3e25b10a	0.16180816
128	0x3dc4bb37	0.09606021
129	0x3dbda0e7	0.09259205
130	0x3e07f9c4	0.13278872
131	0x3e187376	0.14887795
132	0xbd89a857	-0.067215614
133	0xbc92f41c	-0.017938666
134	0x3c407819	0.0117473835
135	0xbde43943	-0.11143734
136	0xbc71437d	-0.014725563
137	0x39d937d3	0.00041431058
138	0x3d24c14b	0.0402234
139	0x3dadeae3	0.08492067
140	0x3df686bc	0.12037417
141	0x3cf81e1a	0.030287791
142	0x3de426f4	0.11140242
143	0x3d9add58	0.07561749
144	0x3c9a882b	0.018863758
145	0x3d8379b9	0.06419701
146	0xbdafc8d8	-0.0858323
147	0x3d254127	0.040345337
148	0x3df9a7e3	0.12190225
149	0x3d97f98e	0.07420646
150	0x3bc0a769	0.005879332
151	0xbd036204	-0.032075897
152	0x3c011c1f	0.00788024
153	0xbe99a95b	-0.3001202
154	0xbeb5d9cf	-0.35517737
155	0xbe8514d2	-0.25992447
156	0xbe2bd052	-0.16778687
157	0xbea3ea9c	-0.3201493
158	0xbeae9b45	-0.34102836
159	0xbed147fa	-0.40875226
160	0xbeb9a9b9	-0.362623
161	0xbe9d98ff	-0.3078079
162	0xbd917009	-0.07101447
163	0xbdba989d	-0.0911114
164	0x3abef58f	0.0014569032
165	0xbd34f59f	-0.044179555
166	0xbdce3ab5	-0.10069791
167	0xbce30b9d	-0.027715499
168	0xbdc1f3bd	-0.094703175
169	0xbdf7577c	-0.12077233
170	0xbdd26d2f	-0.10274731
171	0x3d75505c	0.05989109
172	0x3d05749e	0.032581918
173	0x3d209521	0.03920472
174	0x3dcc0071	0.09961022
175	0xbd84c002	-0.06481935
176	0x3d1c4869	0.038154993
177	0x3c7cf0a4	0.015438233
178	0xbddcefb7	-0.107879095
179	0xbb18951b	-0.0023282233
180	0xbc4756d0	-0.012166694
181	0xbcfb12ca	-0.030648608
182	0x3c4d37df	0.012525528
183	0xbc2ef604	-0.010678772
184	0xbcb9e5a3	-0.022692507
185	0xbbc29569	-0.0059382212
186	0x3d15884a	0.03650693
187	0xbc851958	-0.016247436
188	0x3d08d3df	0.03340518
189	0x3e06b3f0	0.13154578
190	0x3d6c6fa0	0.05772364
191	0x3dfef71e	0.124494776
192	0x3c18f1b2	0.009334968
193	0x3e17a896	0.14810404
194	0x3e26c7ae	0.1628711
195	0x3e1f9dbb	0.15587513
196	0x3e21cfdc	0.15801948
197	0x3e3285f7	0.17433916
198	0x3d344d2e	0.044018917
199	0xbba559f7	-0.005046125
200	0x3cffca1d	0.031224305
201	0x3d899886	0.06718545
202	0xbdb8031e	-0.089849696
203	0xbda08d3a	-0.07839437
204	0x3ce5f16d	0.028069222
205	0xbdca895c	-0.098894805
206	0xbcad2c49	-0.02113928
207	0x3ce496c4	0.027903922
208	0xbdced314	-0.10098854
209	0xbd97875f	-0.07398867
210	0xbdee7f9d	-0.11645434
211	0xbd311480	-0.04323244
212	0xbdfd32d9	-0.12363214
213	0x3a0f3f95	0.00054644916
214	0xbde11d3a	-0.10991903
215	0xbd3a9666	-0.045553587
216	0xbe4d2be0	-0.20036268
217	0xbe146345	-0.14490993
218	0xbd3b8c1d	-0.04578792
219	0x3c6845d3	0.014176804
220	0x3cbd1d24	0.023085184
221	0xbe00847f	-0.12550543
222	0xbe333fff	-0.17504881
223	0x3c965979	0.01835321
224	0x3d6d8e81	0.05799723
225	0x3d178993	0.036996435
226	0xbcb7fb07	-0.022458566
227	0x3d841b4b	0.06450518
228	0x3da9e025	0.08294705
229	0x3d022aa7	0.031778958
230	0x3c429d91	0.011878387
231	0x3b73fd32	0.0037229774
232	0x3bbabdd4	0.005698899
233	0x3d802063	0.06256177
234	0xbe488885	-0.19583328
235	0xbe1832ee	-0.14863178
236	0xbdc95cff	-0.09832191
237	0xbe48d6b5	-0.19613154
238	0xbe724c88	-0.23662007
239	0xbe3cb523	-0.18428473
240	0xbe62fa7b	-0.22165863
241	0xbe824946	-0.25446528
242	0xbe283aac	-0.16428632
243	0x3d5865ed	0.05283158
244	0xbd2cdc5c	-0.04220234
245	0x3d1a6027	0.037689354
246	0xbd885d35	-0.06658403
247	0xb89652be	-7.167969e-05
248	0x3dbf0e9b	0.09328958
249	0xbd9d6852	-0.07685913
250	0xbddfd0ce	-0.10928498
251	0x3d959cf4	0.07305327
252	0xbbcd31b1	-0.006262027
253	0x3dc50488	0.09620005
254	0x3d118d10	0.03553492
255	0x3d7001b0	0.05859536

layer2.0.bias f4 [32]
0	0x3df374aa	0.11887486
1	0x3e0d7374	0.13813573
2	0x3ceec7e0	0.029148042
3	0x3ddb7d12	0.10717215
4	0xbcdf873c	-0.027286164
5	0x3c830f8c	0.015998624
6	0xbdacc810	-0.084365964
7	0x3e12f2d2	0.14350441
8	0x3de563c8	0.112006724
9	0x3e4b3211	0.19843318
10	0xbd7bcf3b	-0.061476927
11	0xbd6d1c03	-0.057888042
12	0x3d3bd75c	0.04585968
13	0x3d32b737	0.04363176
14	0xbce74ecd	-0.028235817
15	0xbd5c82d4	-0.053835705
16	0xbcd1c3b5	-0.025606016
17	0x3c559beb	0.013037662
18	0x3df01d4f	0.1172434
19	0x3da993ce	0.08280145
20	0xbe325d1b	-0.1741833
21	0x3e116e4a	0.14202228
22	0x3e0d6aa7	0.13810216
23	0x3e358cc9	0.17729487
24	0x3e47135e	0.19440982
25	0x3cc097b9	0.023509847
26	0xbba83326	-0.0051330505
27	0xbcf5e7bc	-0.030017726
28	0x3e0fe4aa	0.14052072
29	0xbd4b8512	-0.049687453
30	0x3c5bc5b4	0.013413835
31	0x3df0713f	0.1174035

layer3.0.weight f4 [64, 32, 3, 3]
0	0x3cb7e1a1	0.022446455
1	0xbc9ed044	-0.019386418
2	0xbb32219e	-0.0027180682
3	0x3d30265f	0.043005344
4	0x3d67695e	0.05649697
5	0x3dc091af	0.09402787
6	0x3d2dd164	0.04243602
7	0x3d5d7308	0.05406478
8	0x3d937903	0.072008155
9	0xbc6590cb	-0.014011572
10	0xbdc144e6	-0.094369695
11	0x3816da26	3.5965953e-05
12	0x3da7ae32	0.08187522
13	0x3bcdaa2a	0.0062763887
14	0xbd7b7d1a	-0.061398603
15	0x3d5f4ad0	0.054514706
16	0x3c937043	0.017997866
17	0xbd06f1ae	-0.032945327
18	0x3da435f7	0.080181055
19	0x3c3d2fab	0.011547009
20	0x3cf54d18	0.029943988
21	0x3d2b99e9	0.041894827
22	0xbce18a83	-0.027531868
23	0x3d7f633c	0.062350497
24	0x3c23a9e5	0.0099892365
25	0xbcfa3c5c	-0.03054636
26	0x3ca95133	0.020668602
27	0x3d87d4aa	0.06632359
28	0x3d603b8d	0.054744292
29	0xbd416ca5	-0.047222752
30	0xbd01bcab	-0.03167407
31	0x3d180fde	0.037124507
32	0x3da45d27	0.0802558
33	0x3d8a430a	0.06751068
34	0x3d0e67a9	0.034766827
35	0xbc053bd1	-0.008131937
36	0x3d2d29df	0.04227626
37	0xbd367f77	-0.044555154
38	0x3caa7ea4	0.02081234
39	0xbc5a91b7	-0.013340405
40	0x3da5a81d	0.08088706
41	0x3d7b5041	0.061355833
42	0xbd06d3db	-0.032916885
43	0x3da42b66	0.0801609
44	0x3c85d9a4	0.01633913
45	0x3cede567	0.029040052
46	0xba5bc89b	-0.00083840796
47	0x3c5d7801	0.013517381
48	0x394e5bbc	0.00019679865
49	0x3c082f27	0.008312023
50	0x3d7747f5	0.060371358
51	0xbc50ff6e	-0.012756212
52	0x3d2c6e9b	0.04209767
53	0x3d8b46a3	0.06800582
54	0xbc6a57c8	-0.014303155
55	0xbb935b15	-0.004496942
56	0x3d089e42	0.03335405
57	0xbca73bf8	-0.020414338
58	0x3de83fe9	0.11340315
59	0x3e03e574	0.12880498
60	0x3d9f1fe3	0.07769754
61	0x3d821e5b	0.06353446
62	0x3e270770	0.16311431
63	0x3d51f8f3	0.051262807
64	0x3dc4e068	0.096131146
65	0x3d04b74c	0.032401368
66	0xbbfc3e0e	-0.007697827
67	0x3d811a88	0.063038886
68	0x3cbdf3eb	0.023187598
69	0x3d8eb25e	0.069676146
70	0x3d230e95	0.03980883
71	0xbc977392	-0.018487725
72	0x3d463174	0.048387006
73	0x3d453326	0.048144482
74	0xbb9eb196	-0.0048429472
75	0x3c22c8b3	0.009935546
76	0x3df2319d	0.11825869
77	0x3dbfaa6f	0.093586795
78	0x3ca15607	0.019694341
79	0x3c4a9bdf	0.012366264
80	0x3d81e682	0.06342794
81	0x3f0a15c2	0.5393945
82	0x3e297aed	0.16550799
83	0x3d82b5e5	0.0638235
84	0x3e94b526	0.29044455
85	0x3d231780	0.039817333
86	0xbe6db7d9	-0.23214664
87	0x3e5e6b16	0.21720538
88	0xbe1e7881	-0.15475656
89	0xbea8004e	-0.32812732
90	0x3d6ffa94	0.05858858
91	0xb9a63c38	-0.00031706854
92	0xbd0e3f0b	-0.03472809
93	0xbd6936f3	-0.05693717
94	0x3b98b4ee	0.0046602404
95	0xbc874809	-0.016513841
96	0xbd9a3de7	-0.07531338
97	0xbd7142be	-0.05890154
98	0x3b553f87	0.0032539086
99	0xbd79102b	-0.060806435
100	0xbc1e8dfd	-0.009677407
101	0xbd52a783	-0.051429283
102	0xbcf7fa12	-0.03027061
103	0x3d13850e	0.036015563
104	0x3d248373	0.040164422
105	0x3cb62115	0.022232572
106	0x3cb18821	0.021671357
107	0x3d16fa80	0.03685999
108	0xbcbe82e3	-0.023255771
109	0x3c0238cb	0.007948111
110	0x3b9518e4	0.0045500863
111	0xbce4099a	-0.02783661
112	0x3d6e3266	0.058153532
113	0x3de27831	0.11058081
114	0x3d1aaf1b	0.03776465
115	0x3d8d009d	0.068848826
116	0x3d8371b3	0.06418171
117	0xbd1b4397	-0.037906256
118	0x3c185d49	0.009299585
119	0xbdf48f09	-0.11941344
120	0x3de8e8d7	0.11372536
121	0x3d873940	0.066027164
122	0x3d5b60a9	0.05355898
123	0x3bcbcd20	0.006219521
124	0xbbdc3af3	-0.0067208945
125	0x3d430f46	0.047621988
126	0x3dc804a4	0.0976651
127	0xbb800a7d	-0.0039075003
128	0x3d5ba38a	0.05362276
129	0x3d55a990	0.05216366
130	0x3d854395	0.06507031
131	0x3d5168ab	0.05112521
132	0x3bbb71f3	0.005720371
133	0x3de84b53	0.11342492
134	0x3dba41f6	0.09094612
135	0x3d6448a0	0.055733323
136	0xbc35e785	-0.011102562
137	0x3c42068a	0.011842379
138	0x3b152e5f	0.0022763235
139	0x3d119e51	0.035551373
140	0x3de36fd4	0.11105314
141	0x3cd5877a	0.026065577
142	0x3dad49f8	0.08461374
143	0x3d10ac8d	0.035320807
144	0x3ec1549b	0.3775986
145	0x3e9b1d76	0.30295914
146	0x3e53121f	0.20612381
147	0x3e84f1a4	0.25965607
148	0x3e419701	0.1890526
149	0x3df21db5	0.118220724
150	0x3e335dbe	0.17516229
151	0x3e480813	0.1953433
152	0x3db0a953	0.08626046
153	0x3d9d8f48	0.07693344
154	0x3b235593	0.0024922832
155	0x3b5c895a	0.0033651204
156	0x3d79e635	0.06101056
157	0x3c21134a	0.009831259
158	0xbd0b81c7	-0.034059312
159	0x3c6a41d9	0.014297926
160	0x3bd565a6	0.0065123616
161	0x3d148ef8	0.036269158
162	0x3d9b4b6b	0.07582744
163	0xbca5d0d0	-0.020241171
164	0xbd2cc047	-0.042175557
165	0x3d245ff0	0.040130556
166	0x3cc55039	0.024086105
167	0xbcd87a45	-0.02642549
168	0xbd3a1cfa	-0.04543779
169	0x3cdf2aac	0.027242027
170	0x3beec12d	0.007286212
171	0x3dafdd72	0.08587159
172	0x3d8ce96d	0.0688046
173	0x3d495466	0.049152754
174	0xbc4524e6	-0.012032723
175	0x3cb969d0	0.022633463
176	0x3c67688e	0.014124049
177	0x3d36fcd9	0.044674728
178	0x3d8c99be	0.068652615
179	0x3d8cddc3	0.06878235
180	0x3da59b47	0.080862574
181	0x3dc9271b	0.09821912
182	0x3d927fc3	0.07153275
183	0x3db84481	0.08997441
184	0x3d1a676b	0.037696283
185	0x3ce43c9e	0.027860936
186	0x3d72dbdb	0.0592917
187	0x3df4c923	0.11952426
188	0x3d4285a2	0.047490723
189	0x3d67eb58	0.056620926
190	0x3d6fe981	0.058572296
191	0x3d17bd42	0.037045725
192	0xbc65c43d	-0.014023838
193	0xbc2e647a	-0.010644073
194	0xbca91c9c	-0.020643525
195	0x3c21d70c	0.009877931
196	0x3a782a61	0.0009466764
197	0x3d08d8a3	0.033409726
198	0x3c9ab0a5	0.018883059
199	0x3d040e9d	0.0322405
200	0x3cac7f49	0.021056788
201	0x3db41db3	0.08794727
202	0x3dc25292	0.09488405
203	0x3dca5cd6	0.09880988
204	0x3dc78d27	0.097437195
205	0x3db5be14	0.08874145
206	0x3da3019f	0.079592936
207	0x3cae20b1	0.021255823
208	0x3dd0fd9d	0.10204623
209	0x3d94e013	0.07269301
210	0x3d15995f	0.03652322
211	0x3dbcc3aa	0.092170075
212	0x3d3adaac	0.045618698
213	0xbd329d55	-0.043607075
214	0xbceabfd8	-0.028655931
215	0xbd39db8c	-0.04537539
216	0xbd1e029e	-0.038576715
217	0xbcac9d99	-0.021071242
218	0x3d42fe4c	0.047605798
219	0x3d95f934	0.07322922
220	0x3d889112	0.06668295
221	0x3da1189a	0.078660205
222	0x3ccd7c7c	0.025083773
223	0x3ba72121	0.005100385
224	0x3cfb33f6	0.030664425
225	0x3c84d324	0.016213961
226	0x3c965ca1	0.018354716
227	0xbba1f819	-0.0049429056
228	0x3d729690	0.05922562
229	0x3d0e2140	0.03469968
230	0x3d99b9d4	0.07506147
231	0xbcb2bdb3	-0.021818971
232	0x3d656964	0.05600871
233	0x3c6d7dda	0.014495337
234	0x3da29252	0.07938065
235	0x3c3b2d0a	0.011424312
236	0x3c9e789e	0.019344624
237	0x3c8bd72b	0.017070374
238	0xbd2cbb73	-0.042170953
239	0xbde441cc	-0.11145362
240	0xbd814bc6	-0.06313281
241	0xbda84f56	-0.08218257
242	0xbc9dd4e6	-0.019266557
243	0xba3d0b59	-0.0007211469
244	0x3a6897b3	0.00088727026
245	0x3d532ac2	0.05155445
246	0x3d321149	0.043473516
247	0x3ab75990	0.0013988484
248	0x3cdf98b4	0.027294494
249	0xbcc306ee	-0.023807015
250	0x3d05d37a	0.032672383
251	0x3d2311e2	0.039811976
252	0x3de68278	0.11255354
253	0x3df49e69	0.11944277
254	0x3ce4526d	0.027871335
255	0xbc959afd	-0.01826238

layer3.0.bias f4 [64]
0	0x3dd4d494	0.103921086
1	0xbdadf931	-0.08494795
2	0xbc2abda1	-0.010421188
3	0x3ce83de1	0.028349819
4	0x3dcb4437	0.0992512
5	0x3df60c01	0.12014008
6	0x3dbbfbd9	0.091788955
7	0x3d687bb0	0.056758583
8	0xbd3d159f	-0.046163198
9	0x3dbbb7ba	0.091659024
10	0xbce32594	-0.02772788
11	0x3bf551f3	0.0074865757
12	0x3adc4e51	0.0016808008
13	0x3d9bb3e9	0.076026745
14	0xbd3883e7	-0.045047667
15	0xbd6b6216	-0.05746659
16	0xbc939855	-0.018016974
17	0x3c62b920	0.013838083
18	0x3c7a107d	0.01526272
19	0xbd6817d1	-0.056663338
20	0x3d046650	0.032324135
21	0xbd37cf36	-0.044875346
22	0x3d8ac01d	0.06774924
23	0x3dc5ba66	0.09654693
24	0xbd910ffc	-0.07083127
25	0xbc705210	-0.014668003
26	0x3dc55ad6	0.09636466
27	0xbd90f8e9	-0.07078726
28	0x3d9a31a3	0.07528999
29	0x3bf793e2	0.007555471
30	0x3d19beaf	0.037535366
31	0xbd21e82f	-0.03952807
32	0x3d387460	0.04503286
33	0x3e0087ed	0.12551852
34	0x3d213563	0.039357554
35	0x3cfa839b	0.030580333
36	0xbd579d35	-0.05264016
37	0x3cb81238	0.022469625
38	0x3d969dfd	0.073543526
39	0x3da8e90e	0.08247577
40	0xbc22487c	-0.009904977
41	0xbd2e536b	-0.042560022
42	0xbcaac6ad	-0.02084669
43	0xbd55295c	-0.052041396
44	0xbc513bfb	-0.012770648
45	0xbd9db4ee	-0.07700525
46	0x3dc4c73e	0.09608315
47	0x3cef656a	0.029223163
48	0x3b7770d4	0.003775646
49	0xbd6caa50	-0.05777961
50	0x3d853977	0.06505101
51	0x3d8c60ef	0.06854426
52	0xbcffafaf	-0.031211702
53	0x3d7bc957	0.06147131
54	0x3d983ca8	0.07433444
55	0x3da6a36a	0.081366375
56	0x3d16ec51	0.036846463
57	0x3cd35364	0.0257966
58	0x3d643b05	0.055720348
59	0xbdef4296	-0.11682622
60	0x3d3e0aad	0.0463969
61	0xbe549203	-0.20758824
62	0xbe4bbd36	-0.19896397
63	0x3d620de1	0.055189017

fc.weight f4 [8, 64]
0	0x3df307fb	0.118667565
1	0x3d1b7eb0	0.037962615
2	0xbd9d539d	-0.076819636
3	0x3e24d7d8	0.16097963
4	0x3d3e7680	0.04649973
5	0x3ccb8ee9	0.024848418
6	0x3de5fa4e	0.112293825
7	0x3c1fe8af	0.009760066
8	0xbdc7df0f	-0.09759342
9	0x3cb933ed	0.022607768
10	0x3e425cb5	0.18980677
11	0x3de097e4	0.10966471
12	0x3c156faa	0.009120861
13	0x3d503a23	0.050836693
14	0x3d25c2c5	0.04046895
15	0xbf33c5a2	-0.7022344
16	0x3e40ddcd	0.1883461
17	0x3e042b5d	0.12907167
18	0x3d8286f8	0.063733995
19	0xbdca946b	-0.0989159
20	0x3ccd16e2	0.025035325
21	0xbbe72bf1	-0.007054799
22	0x3ca7e9be	0.0204972
23	0x3dd931f5	0.10605232
24	0xbed32ece	-0.41246647
25	0xbee003fa	-0.43753034
26	0x3dc1ebd9	0.094688125
27	0x3d90f009	0.07077033
28	0xbdd3a968	-0.10335046
29	0x3dda1dab	0.1065019
30	0x3de47aad	0.11156211
31	0x3e4154ee	0.18880054
32	0x3e2fa4da	0.1715273
33	0x3da985c4	0.08277467
34	0xbf189fba	-0.59618723
35	0xbe82fd83	-0.2558404
36	0xbf17ede0	-0.59347343
37	0x3a949aa3	0.0011337589
38	0xbda7aca9	-0.08187229
39	0x3cd79170	0.026314467
40	0xbf56b340	-0.83867264
41	0xbf5f3c43	-0.8720133
42	0x3f2e9ef9	0.68211323
43	0xbdae8817	-0.08522051
44	0xbefbfd6d	-0.49216786
45	0xbdd3e0cf	-0.10345613
46	0x3e2f7a16	0.17136416
47	0x3d3d985e	0.046287887
48	0x3e026f48	0.12737763
49	0xbc967ddf	-0.018370567
50	0xbeedf8bf	-0.4647884
51	0x3e23f060	0.16009665
52	0x3d44cebb	0.048048716
53	0x3c4480e5	0.0119936215
54	0xbc31d092	-0.01085295
55	0x3da0eca4	0.078576356
56	0x3dbc1511	0.091837056
57	0x3e3d37a8	0.18478262
58	0x3e188ae9	0.1489674
59	0xbf4535d2	-0.7703525
60	0xbd31a34d	-0.043368626
61	0xbeab717f	-0.33485028
62	0x3f4c7d6e	0.7987889
63	0x3d7cdb44	0.061732545
64	0x3dac895c	0.08424637
65	0xbf309c67	-0.6898865
66	0x3df7bfd5	0.12097136
67	0x3d922cf1	0.07137478
68	0x3e09cff3	0.13458233
69	0xbd9d8b0b	-0.07692536
70	0x3cd921e8	0.026505426
71	0x3dbf2f84	0.09335235
72	0xbd130ac6	-0.035898946
73	0x3e1fb2de	0.15595576
74	0x3dfdc2a3	0.1239064
75	0x3e13b3a0	0.1442399
76	0xbe11ef35	-0.14251406
77	0x3e01ae9b	0.12664263
78	0x3dd10372	0.10205735
79	0xbf32b66f	-0.6980962
80	0xbca8aad3	-0.020589268
81	0x3deec367	0.11658364
82	0x3d5e09be	0.05420851
83	0x3e221a46	0.15830335
84	0x3e24fbf8	0.16111743
85	0xbe92dece	-0.2868561
86	0xbce782c6	-0.0282606
87	0x3e13fb1c	0.1445126
88	0xbe856d2e	-0.2605986
89	0xbee68920	-0.45026493
90	0xbd8d4a98	-0.06898993
91	0x3c86fbdb	0.016477516
92	0x3dee4812	0.1163484
93	0xbd00d3fb	-0.03145216
94	0xbd9df7f8	-0.07713312
95	0x3e71bf53	0.2360814
96	0x3c824547	0.015902175
97	0x3dda619d	0.106631495
98	0xbe6e2538	-0.23256385
99	0xbe9dccb9	-0.30820253
100	0xbf721068	-0.94556284
101	0x3d035871	0.032066766
102	0x3e233d74	0.15941411
103	0x3d69ebca	0.05710963
104	0xbe3e275c	-0.18569702
105	0xbe712068	-0.23547518
106	0x3e367f2f	0.17821954
107	0x3d4f3c19	0.050594423
108	0xbef77490	-0.48331118
109	0xbd9aa2b5	-0.07550565
110	0x3e2200e3	0.15820651
111	0x3cd751bf	0.026284097
112	0x3d91af69	0.07113535
113	0xbd40839c	-0.047000512
114	0xbe483ed7	-0.19555221
115	0x3d47c930	0.04877585
116	0xbdad6930	-0.084673285
117	0x3cd5bfa8	0.026092365
118	0xbd46268a	-0.048376597
119	0x3e050abc	0.12992376
120	0x3d0fb71a	0.03508673
121	0x3ef93c32	0.48678738
122	0x3d88bf3c	0.066771
123	0xbf96a5f7	-1.1769398
124	0xbd82c360	-0.06384921
125	0xbca96421	-0.020677628
126	0x3f266a15	0.6500562
127	0xbdb38cb5	-0.08767072
128	0x3dc7e722	0.09760882
129	0xbe0cfe94	-0.13768989
130	0xbcbf9d09	-0.02339031
131	0x3e3126a7	0.17299901
132	0x3b44d1e3	0.0030032329
133	0x3e1e6753	0.15469103
134	0x3c8a4228	0.016877249
135	0xbd5acd1c	-0.053418264
136	0x3e245523	0.16048102
137	0x3dd084ea	0.10181601
138	0xbd08534c	-0.033282563
139	0x3e0c866e	0.13723156
140	0xbe382c27	-0.17985593
141	0x3e32e628	0.1747061
142	0x3cf5490c	0.029942058
143	0xbf3df562	-0.7420255
144	0xbd41ae8e	-0.04728561
145	0xbd81d67b	-0.06339737
146	0x3e19594a	0.14975467
147	0xbe362848	-0.17788804
148	0xbd02a289	-0.031893287
149	0xbe06f2eb	-0.13178603
150	0x3e2bc19c	0.16773075
151	0x3d1e6d62	0.038678534
152	0xbf386356	-0.72026575
153	0xbedb863b	-0.42875847
154	0x3d3ac997	0.045602407
155	0xbd5543d2	-0.05206663
156	0xbc67f1d2	-0.014156776
157	0x3dad2cc4	0.08455804
158	0xbe63e92d	-0.22256918
159	0x3ea7996f	0.32734248
160	0x3e0f8b1b	0.14017908
161	0x3dfd2e58	0.12362355
162	0xbea185ff	-0.31547543
163	0xbe4bb8ba	-0.19894686
164	0xbf20a24c	-0.62747645
165	0xbc56da3f	-0.013113557
166	0x3df0b8d0	0.11754
167	0x3d5cfab0	0.05395001
168	0xbf5ab9ad	-0.8543957
169	0xbe37cd0d	-0.17949314
170	0x3f20423b	0.6260106
171	0xbd6a7567	-0.05724087
172	0xbee73cc1	-0.4516354
173	0xbc26736c	-0.010159355
174	0x3db8b4d9	0.09018869
175	0x3d9f0777	0.07765096
176	0xb86aafc1	-5.595363e-05
177	0xbc4656b5	-0.0121056335
178	0xbf12ed46	-0.573933
179	0xbb64c6ed	-0.0034908608
180	0xbd1d43a7	-0.038394596
181	0x3d3be102	0.04586888
182	0x3e254275	0.16138633
183	0x3dd53835	0.10411111
184	0x3d4bc4bc	0.049748167
185	0x3d15512e	0.036454372
186	0x3cc7b3f3	0.024377799
187	0xbf99a422	-1.2003214
188	0x3dfccd46	0.1234384
189	0xbeb83f41	-0.3598576
190	0x3f52147f	0.82062525
191	0x3e0a6f33	0.13518982
192	0x3e28b5ce	0.16475603
193	0xbed0a7de	-0.40753073
194	0xbd13504a	-0.03596524
195	0x3dfab199	0.12240905
196	0x3e4217f4	0.1895445
197	0x3e1a4dac	0.15068692
198	0x3e136c82	0.14396861
199	0x3e05ed5d	0.13078828
200	0xbdd88316	-0.10571878
201	0x3d7648bb	0.060127955
202	0xbdcc2de9	-0.09969694
203	0xbd1d0dbc	-0.038343176
204	0xbef30c7e	-0.47470468
205	0x3e279ff4	0.16369611
206	0xbdd7887f	-0.105240814
207	0xbeef91e8	-0.46791005
208	0xbdd5d685	-0.10441307
209	0x3e1cb797	0.15304409
210	0xbd8204b4	-0.06348553
211	0xbde431ae	-0.11142288
212	0xbd968a44	-0.07350591
213	0xbeb3dae2	-0.35127932
214	0xbd0bca56	-0.03412851
215	0xbc30f24f	-0.010799958
216	0xbec6e484	-0.3884622
217	0xbed9e96d	-0.42560902
218	0x3e2458be	0.16049477
219	0xbd89ad18	-0.06722468
220	0x3ddf5226	0.109043404
221	0x3e473640	0.19454288
222	0x3e0a8c32	0.13530043
223	0x3f0597c7	0.5218472
224	0xbe0e6b89	-0.13908209
225	0x3dbfe93f	0.0937066
226	0xbee9f15a	-0.4569195
227	0xbed061c9	-0.40699604
228	0xbf09b813	-0.537965
229	0x3d285d85	0.041104812
230	0x3db2bbf0	0.087272525
231	0x3db5a9e8	0.08870298
232	0xbe8525f0	-0.26005507
233	0xbe9220c6	-0.2854063
234	0x3dc5b276	0.09653179
235	0x3d4164e1	0.047215346
236	0xbede76a1	-0.43449882
237	0xbdae2aab	-0.08504232
238	0xbd6f6771	-0.05844826
239	0x3e0214b7	0.12703215
240	0x3d99c472	0.07508172
241	0x3daeedf4	0.0854148
242	0xbe8a31b7	-0.26991054
243	0xbd8d11c3	-0.068881534
244	0xbde92975	-0.113848604
245	0x3e05c2d6	0.13062605
246	0x3e2b47e0	0.16726637
247	0xbd2a0a87	-0.041513946
248	0x3dac0cbc	0.084008664
249	0x3ed2ede6	0.41197127
250	0x3db9bef7	0.09069627
251	0xbf62847d	-0.8848341
252	0x3e17547b	0.1477832
253	0xbd97df38	-0.074156225
254	0x3eafbb84	0.3432275
255	0x3dab982b	0.08378633

fc.bias f4 [8]
0	0x3e26c578	0.16286266
1	0x3db18df0	0.086696506
2	0xbb575258	-0.0032855477
3	0xbd42e614	-0.0475827
4	0x3e2795f7	0.16365801
5	0xbd6837da	-0.05669389
6	0x3e1aa35b	0.15101378
7	0xbc208961	-0.009798379
